tracknnanalysis-master/TrackNNAnalysis/data/ClassificationModelsITK/Classification_MLP_ITK_ws3_v3.onnx (onnx, 97405 bytes, 8 tensors)

StatefulPartitionedCall/model/dense_3/MatMul/ReadVariableOp:0 f4 [128, 15]
00000000: baac 59bd 9fd9 253e 8756 9fbd 966a 0abf
00000010: cde4 8dbd ac5a 633e c4a8 fd3d c61d b2bd
00000020: 0a8b 02bf 47be c13e 7dcb 913e 0e4c 6c3e
00000030: cacc 913d 3a97 42be c658 c73c 10ac 9abf
00000040: ae0f dc40 c54e aebd 3cae f4bc 058b ae3f
00000050: 8793 c73e 979d 1e3e 19fb 883e e780 823e
00000060: 3ead fa3d e4ad e3bb a266 94bf ded5 203e
00000070: 0617 c0bc 7075 8abe 9449 43be 0154 66be
00000080: 4253 41be a756 c33e 9f87 a8be 87f8 8fbe
00000090: 2f9e 3ebe 94d9 6ebe 3f60 ce3d 6043 2bbf
000000a0: 955d 18bf f153 ccbd 03a0 9bc0 6874 353f
000000b0: fe8c 103f eaba b63c 0aa0 66be b459 bcbd
000000c0: 9ac0 233e a1e3 813d 78c5 953e 5fa6 31bd
000000d0: 5a0c c23d d273 3b3e a75b ac3e 02f6 4e3e
000000e0: 8f10 723e d8e3 233d bbef d23d 22a9 a8be
000000f0: 6df8 61be d32c 7f3c 0a67 d0be af34 fabd
00000100: 943e 443e 4f1b fbbd c19c 7b3d e3b3 ebbb
00000110: 7539 afbc 8c09 58be 77d1 7cbd 1bbe 993d
00000120: 2b62 b6be 08b0 c53d 0892 e33e 822f dbbe
00000130: c67b 90c0 91a8 e2bd 1fb4 843e 1af6 01c0
00000140: 860f e3c0 a191 de3f d3af 363d 45ca 8d3e
00000150: 32e0 aa3d c9f7 4fbe 81e0 4bc1 5dce 843d
00000160: 4403 9b3e c64c a6bd 8968 4bbd 6302 52be
00000170: 8c14 a7bd 7978 643e 07c0 dabe c50b 1dbf
00000180: a483 d6bf bff1 49be d32c 18bc 790e a03e
00000190: 1286 babd ce3b e13f 5971 1cbe e1c4 833e
000001a0: b0a3 5a3e 0616 77be d1ee fdbe f527 22be
000001b0: 4461 c03e 342d 10bf 9661 1cbf 4821 0fbf
000001c0: aa08 b6bf 4471 8d3e 3861 f23d 5ba6 85be
000001d0: ca1c 38be 3494 93bf ca34 ad3d 4a84 bc3d
000001e0: db3c 8fbf 9de8 04bf 1e96 bbbe 5604 9d3e
000001f0: a30e d0be 24f1 133d 3ff7 cf3e 93ec 8e3d
00000200: 29bb 83bd 0d90 093e d3ef 5cbd 194d 20bf
00000210: 5f3d 7c3e e355 7d3d 6b1f 943d beab ffbc
00000220: 5df1 203d 5610 39be e711 07bf 0865 8e3e
00000230: 81e8 893e 215f 5e3e 1d68 1b3d 6494 023d
00000240: dd5a 16be 1ad4 b93c b038 953d 1b2c 803e
00000250: 62b9 7dbe b334 62bf 0b7c c1bd 11e8 b2be
00000260: 1e13 bfbd 4502 8fbe 8dad 4abe efe2 363d
00000270: 367e 7fbd ec7d 4dbe 6164 87be 083b 183e
00000280: b052 0cbc a3a5 2c3e 2263 093e 4025 423e
00000290: 39ec 9cbb 664b b6bf 22a2 dd3e 1f6d 18be
000002a0: 45b9 5cbe 8afa 71be 62a6 e93d f323 3ebe
000002b0: 49b8 4b3e e201 7b3e 60f2 1f3d 0b33 6b3e
000002c0: 7e14 3bbf 5aef eb3c d3c7 ec3d 82cd 2c3d
000002d0: 8a9a 21c1 e820 0f3f 4316 68be a1ac 95bd
000002e0: 008f f93d 1cfa 43be 7c18 0bbe 5f1e 7b3e
000002f0: 3206 39bd 2636 793e 1041 2b3e 0235 a5be
00000300: 16bb 413e 4852 473e 9a83 393e 3d1c e03d
00000310: 94ba a53e ab7a 02be c5aa b03e b1d2 cfbd
00000320: a8c4 d0bd 9165 073d 6074 2bbe 641f 003e
00000330: 17fb fc3d b1e5 25bd 30bd 35bd 69d2 88be
00000340: 3d01 c1be b199 84be b39b 313e 5496 843e
00000350: a001 c4be 4e46 f7bf 6cca 753e d460 d4bd
00000360: 85a6 ccbd 07ec 443e d5f6 9bc1 a24f 82bc
00000370: 2f87 56bf 3f44 e1ba e863 b93e 5fd6 44c0
00000380: e8a6 a5be abbb ffbd a3ca 933e 13a5 02bd
00000390: 14b8 d43e e344 8bbd 4063 9dbe 9f64 78be
000003a0: 4504 2fbe 3345 8d3e 657a acbd b454 643e
000003b0: 0d83 f0bd 08f3 f4be cd81 80be 9edd 103d
000003c0: fdaf 4cbe 618d d3bd bc1a ebbd ec5c 10be
000003d0: 6d5b 82bd a54e efbc ee19 3f3e 8f94 87bd
000003e0: 72d7 063e fc05 1dbe 13a6 1a3e 71a2 01be
000003f0: f1a8 28be 4c11 22bc b515 e63d b918 ee3f
-0.05314324 0.16196297 -0.07780176 -0.5406889 -0.06928406 0.22202557 0.12385705 -0.08697085
-0.50993407 0.37840483 0.28475562 0.23075888 0.071191385 -0.19003001 0.024334323 -1.2083759
6.876914 -0.08511118 -0.029868238 1.3636175 0.38979742 0.15489803 0.26754072 0.2548897
0.122400746 -0.0069482196 -1.1593821 0.15706584 -0.023448478 -0.27042723 -0.19071037 -0.22492982
-0.18879417 0.38152048 -0.3291597 -0.281193 -0.1861503 -0.23325187 0.10076951 -0.6689968
-0.59517795 -0.09976948 -4.8632827 0.70880747 0.56465137 0.022305924 -0.22521988 -0.09196797
0.1599144 0.06342245 0.2925222 -0.043371554 0.09475012 0.183059 0.33663675 0.20211032
0.23639129 0.04001221 0.10299631 -0.32941538 -0.22067423 0.015574652 -0.40703613 -0.1221708
0.19164497 -0.12261068 0.06142879 -0.007193075 -0.021389702 -0.21097392 -0.0617232 0.07506963
-0.3562177 0.09652716 0.4444735 -0.42809683 -4.515109 -0.11067308 0.2591867 -2.0306458
-7.095645 1.7388192 0.044601273 0.27693382 0.08343543 -0.20309366 -12.742311 0.06484673
0.3027593 -0.08120112 -0.04966024 -0.20508723 -0.08158216 0.22311582 -0.4272463 -0.61346084
-1.6758924 -0.19721125 -0.009288031 0.31261042 -0.09107603 1.7596376 -0.15277614 0.25736144
0.21351504 -0.24129495 -0.49596265 -0.15835555 0.37574208 -0.56318974 -0.61086404 -0.5591016
-1.4221394 0.27625477 0.11834949 -0.26103482 -0.17979732 -1.1529603 0.08457334 0.0920492
-1.1190447 -0.5191744 -0.36637968 0.3066737 -0.40636167 0.03611864 0.4061832 0.06978717
-0.06432182 0.13433857 -0.05393965 -0.6261764 0.24632786 0.061849486 0.07232555 -0.031209823
0.039292682 -0.18072638 -0.5276169 0.27811456 0.269352 0.21715976 0.037941087 0.031879798
-0.14683099 0.022684146 0.07286203 0.2503365 -0.24777749 -0.8836166 -0.094474874 -0.34942678
-0.09329818 -0.2793142 -0.19792767 0.044650014 -0.062376224 -0.20067567 -0.2644377 0.14866269
-0.008564636 0.1686006 0.13416722 0.18959522 -0.004788902 -1.424176 0.4328776 -0.14885376
-0.2155505 -0.2363073 0.11408688 -0.18568401 0.19894518 0.24512437 0.039049506 0.2296869
-0.73078144 0.028800655 0.11561551 0.042188175 -10.100229 0.55909586 -0.22664742 -0.07308317
0.12185478 -0.19138378 -0.13583559 0.24523304 -0.045171924 0.24337062 0.16724038 -0.32267004
0.18919024 0.19464982 0.18116608 0.10942886 0.3236891 -0.12742107 0.34505287 -0.10147608
-0.10193759 0.033055846 -0.16743612 0.12511975 0.12352579 -0.040502254 -0.044369876 -0.2672303
-0.37696257 -0.25898507 0.17344551 0.2589594 -0.3828249 -1.931833 0.24002999 -0.10370031
-0.099926986 0.19230662 -19.495523 -0.015907113 -0.83800024 -0.0017186477 0.36209035 -3.0755842
-0.32353902 -0.12486967 0.28865537 -0.03189571 0.4154669 -0.068002485 -0.30739784 -0.24257134
-0.17091472 0.27591857 -0.084217824 0.22297937 -0.11743746 -0.47841668 -0.2509903 0.0353676
-0.19989009 -0.103297 -0.114797086 -0.14097947 -0.06365094 -0.029212305 0.18662235 -0.06620132
0.13168123 -0.15334314 0.15102415 -0.12659623 -0.16470696 -0.009891819 0.11234609 1.8601295

StatefulPartitionedCall/model/dense_3/BiasAdd/ReadVariableOp:0 f4 [15]
00000000: ad2b 52be 8ec9 903d 222a 63be 1f34 fd3d
00000010: 2fc6 d83d 9ab8 2c3d 9b6d 09bc dc13 423d
00000020: cb1e 263e d431 f23c 8aa1 043d f88f 7e3b
00000030: cad8 99bc 4c30 f93d 3c84 98be
-0.20524473 0.070696935 -0.22184041 0.12363457 0.105846755 0.042168237 -0.008387948 0.04738222
0.16222684 0.029564776 0.03238062 0.0038843136 -0.01878013 0.12167415 -0.29788387

StatefulPartitionedCall/model/dense_2/MatMul/ReadVariableOp:0 f4 [128, 30]
00000000: cb2e cfbe e0c6 213f d01b 82be 4efe 64be
00000010: 52e5 c2be 6fa5 603d 402d 103f 6bea 573e
00000020: c3b6 6bbf 1fbc bbbe feae cc3e 7490 f0bd
00000030: e11d 3b3f 2c02 0a3f 0539 59bf 451d a3be
00000040: 608f 31bf 3019 983d b32d 913e e3ad 9a3e
00000050: 31ef 3f3e 4bcf c73e da82 773e bfdf 463c
00000060: af53 553d 7a35 753e 139d a93d afbe 843e
00000070: ccff 173f f8ed 10bf 945b 68be ea87 5e3e
00000080: 2bae 7b3e 8228 f03e d570 853e 0bae 1cbe
00000090: bee4 183f 4705 183e 7a5c 24bd 9400 6abe
000000a0: b991 52be 2e6a 5abe 073b d4be 8f16 b8bf
000000b0: 5ebc 213f 0896 8d3f 7fb1 0ebf dddd 3f3e
000000c0: 5938 213f 33cb 733c a817 afbd 3e8e 3bbf
000000d0: 566f 2cbe 3252 10bf c817 74be 5abd 7dbf
000000e0: 979d 1dbf f1c1 d6be b489 993d 9eb0 393e
000000f0: a6c3 49be bb36 ac3f dd75 b13e 7f57 82c1
00000100: 145c 63c0 bbf2 dcbf a6d3 063f 64ec 0540
00000110: 7400 ca3e 67dd e0bf 4be5 15c0 46af 09bf
00000120: 0314 f9be fb46 debf 058e 1abf 7389 eebe
00000130: 1030 0c3f 1010 923e b04c a73f f961 203e
00000140: 38c8 5c3e ac8e 883f 73ea 7a3e 8c81 8e3f
00000150: 1458 163e efe3 583f 4696 733e 4dfd e53e
00000160: 0fdb 4e3e 4706 e33d 141c 7dbe acdf 143e
00000170: 38ba e6bc c0d7 dd3e 1e52 f83e c547 023f
00000180: 9647 e6bd 799c 96be 8186 543d 5b78 483f
00000190: c000 ad3e b318 fdbd e789 d4be f5f4 20bf
000001a0: e0f1 3f3e 9cda 07c0 7f89 a13e b422 43bf
000001b0: be65 0a3e 21d6 cd40 21d8 b240 a7ce 8a40
000001c0: c6bb 083f 1f40 a0c0 8f14 883e a254 85c0
000001d0: c775 4abf daf9 22be 119a 28bf 8c5b febe
000001e0: a80e b7be c017 86bd ea8b 7f3e 7410 9c3e
000001f0: 8582 28be ca4f 653d 89f1 00bf 4334 403e
00000200: 0370 8b3e 0618 46bd 3f7f 8abd 9190 edbd
00000210: 0e21 10be ecb5 77be ceda 3fbe bc0b 21be
00000220: 0705 07be a3f2 a23e 9447 bf3e f543 3d3d
00000230: fc3d 6f3e 06e1 143d 9a88 023e 2097 39be
00000240: 0cc9 93bc e4fd 993c 5b2a 383e 1aab 573e
00000250: fea7 1a3d 30b9 0c3f ada2 b0bd a5bb 49bf
00000260: eb70 94be 0761 48bf f9a0 653e c1bd 08bd
00000270: aa16 a93e 6f50 c93e 7c2d ce3e 7943 683e
00000280: 353b ec3e 2c13 ab3e 16db 473e 00ec ca3d
00000290: 8560 9b3e ed1a a13c c230 92bd c026 4abd
000002a0: 1776 dbbe c060 3e3e 1bc6 163c a54f 85bd
000002b0: 0266 e6be 1c4c 11bf 64d7 f73e ec78 f73e
000002c0: e8f8 2c3e fd87 723d f7f4 063d 1781 993e
000002d0: c1a5 00be 7406 72bf ed37 9bbe c654 f4be
000002e0: 274a 5abe 9e33 923f 0622 ad3f 01ac 90bd
000002f0: 2ea6 85bf 782e 46bd 9902 893e 0d87 8c3e
00000300: 2c28 c9bc c3c9 723d a434 66be 685c e43c
00000310: 9ad8 46bd 6a44 8c3e 8d80 a63e 5a2d 523f
00000320: 5960 8f3e f039 583e cc4c 8c3e d3a3 dfbd
00000330: a94b c93e 39a1 143c 52d9 893e f5b5 1d3e
00000340: 48b9 3a3e bf85 043e d3a9 c1be 94f4 7e3e
00000350: c0fb 09bf 2e7f b3bf 10d2 073d 39c2 cabe
00000360: 22a3 79bf 12f8 6cc0 0778 94be fa2b fd3f
00000370: 0a4b 21bf 8940 69bf ccbf 063f fe0f 733f
00000380: 31b0 653e 4620 183e eee2 70bd 7770 ccbc
00000390: 393c 533e 8490 973c e323 153e 72e8 353f
000003a0: 1fcf 733e 75e7 b03e 6242 333d 44d7 323e
000003b0: 4471 023e bd7d ac3d d7a1 3a3e b4a2 bc3d
000003c0: 94fa d5be 5c1c e93e b8ba db3e 07b5 b43e
000003d0: 8a9b 8f3f 640f 8ebf f8b0 09bf bb85 8abd
000003e0: 3916 8c3d a033 05be ddb7 05be 411c 9bbd
000003f0: cd7c 3ebe 2333 983d cdc7 8d3d b16b 44be
-0.40465388 0.63194084 -0.25411844 -0.22362635 -0.38065583 0.05484527 0.56319046 0.21085517
-0.9207575 -0.36666963 0.39977258 -0.11746302 0.73092467 0.53909564 -0.8485263 -0.31858268
-0.693594 0.07426679 0.28355178 0.3021079 0.18743588 0.3902534 0.2417101 0.012138306
0.05208176 0.23946181 0.08281913 0.2592673 0.5937469 -0.5661311 -0.22691184 0.21731535
0.24578159 0.46905905 0.26062647 -0.15300767 0.5972403 0.14845763 -0.040127255 -0.22851783
-0.20563401 -0.21329567 -0.41451284 -1.4381884 0.6317805 1.1061411 -0.5573959 0.18736978
0.62976605 0.014879989 -0.08549434 -0.7326392 -0.16839346 -0.5637542 -0.23837197 -0.9911705
-0.6156859 -0.4194484 0.07496968 0.1813378 -0.1970354 1.3454202 0.34660235 -16.292723
-3.552495 -1.7261575 0.526667 2.0925531 0.3945347 -1.7567567 -2.34212 -0.5378307
-0.4864808 -1.7365412 -0.60372955 -0.4658924 0.5476084 0.2852788 1.3070278 0.15662374
0.21560752 1.066854 0.24503498 1.1133285 0.14682037 0.847228 0.23787794 0.44919816
0.20200752 0.11085182 -0.24717742 0.14538449 -0.028164968 0.43328667 0.4850015 0.5089076
-0.11244123 -0.29416254 0.051886085 0.7830865 0.33789635 -0.123582266 -0.4151146 -0.62873775
0.18744612 -2.1227179 0.31550214 -0.7622483 0.13515374 6.432389 5.588883 4.337726
0.5341152 -5.0078273 0.26578185 -4.166581 -0.79085964 -0.15915623 -0.65860087 -0.4967922
-0.3575337 -0.06547499 0.24955717 0.30481303 -0.16456039 0.055984296 -0.50368553 0.18769936
0.27233896 -0.048362754 -0.067625515 -0.115998395 -0.1407511 -0.24190491 -0.18735811 -0.15727133
-0.13185512 0.31825742 0.37359297 0.046207387 0.23363489 0.03634741 0.12747422 -0.18124056
-0.018040203 0.018797822 0.17984907 0.21061364 0.037757866 0.54970074 -0.08624778 -0.7880195
-0.289924 -0.7827305 0.22424687 -0.03338409 0.33025104 0.39319178 0.40269077 0.22681989
0.4613892 0.33413064 0.19517168 0.09908295 0.30347076 0.01966616 -0.07138206 -0.04935336
-0.42863533 0.18591595 0.009202505 -0.065093316 -0.449997 -0.5675676 0.48406518 0.48334444
0.16891825 0.05921172 0.03294846 0.299813 -0.1256323 -0.94541097 -0.30316105 -0.47720927
-0.2131735 1.1422002 1.3526008 -0.07064057 -1.0441339 -0.04838416 0.26759794 0.27446786
-0.024555288 0.059274446 -0.22481018 0.027876094 -0.04854641 0.27395946 0.3251995 0.8210045
0.28003195 0.21115851 0.2740234 -0.10919919 0.39315537 0.009071642 0.26923615 0.15401442
0.18234742 0.12941645 -0.37824878 0.24897987 -0.53899765 -1.4023187 0.033159316 -0.39601305
-0.97514546 -3.702641 -0.28997824 1.9779046 -0.63005126 -0.911141 0.5263641 0.9494628
0.22430493 0.14856061 -0.058810167 -0.024955971 0.20628442 0.018501528 0.14564471 0.7105781
0.23809479 0.34551588 0.04376448 0.1746493 0.1273852 0.0842242 0.182258 0.09210721
-0.41792738 0.4552945 0.42915893 0.35294363 1.1219342 -1.1098447 -0.5378566 -0.06763788
0.06840176 -0.13007975 -0.1305842 -0.075737484 -0.18602295 0.074316286 0.069228746 -0.19181706

StatefulPartitionedCall/model/dense_2/BiasAdd/ReadVariableOp:0 f4 [30]
00000000: c79c 75be 3678 0ebf 5b1a 94be 190a f53d
00000010: 6a6a a7bd 39f5 45bc 6948 873e cdef b53d
00000020: bb0d 0d3e 6b75 5c3e 6441 063d 2211 5d3e
00000030: 7024 db3d 1c6e 6f3e 687e fe3d 409f 0b3e
00000040: ff85 5ebd bc63 3b3e 3fa5 833c c446 023e
00000050: fb0a c53d 46ff 053e f182 ee3d 6766 a13d
00000060: cdce e23d bc2a 263c 7b96 303d 5ffb 753d
00000070: 0e01 b1bd 2a37 8bbc
-0.23985587 -0.5565218 -0.28926358 0.119648166 -0.08174594 -0.012082391 0.26422432 0.08883629
0.13774769 0.21529166 0.032777205 0.21588567 0.10700309 0.23381847 0.12426454 0.13634968
-0.054327007 0.18299764 0.016070006 0.12722307 0.09621235 0.1308566 0.11646069 0.0788086
0.110746 0.010142025 0.04311226 0.06005418 -0.08642779 -0.016994078

StatefulPartitionedCall/model/dense_1/MatMul/ReadVariableOp:0 f4 [128, 128]
00000000: 9b65 633f 6558 a33f fbd1 01c0 8e46 5a3f
00000010: d635 06bf e040 61bf d2f6 6c3f 6f3b 92bf
00000020: 31dd b53d fd58 1b3f 92ea 8c3e 333c a83f
00000030: c17e 973f 4002 683d b618 2a3f 16d3 03be
00000040: bfd9 c73d fc6d 883f 2309 373f d3b9 fbbd
00000050: 0164 23be d122 2e3f 81fc 1c3f c701 933f
00000060: 74f2 cbbe acd7 29bf 0c85 a2bf a59f 853f
00000070: 4ec7 e5be f6b3 83bd 030a 84be 2e71 853f
00000080: 0427 203f 3794 bc3f ee1e d83d 7b2c 903f
00000090: fae9 b23e 1c86 cd3e bc1e 23bd c5e4 823e
000000a0: f954 653f 6319 193f 1954 0abf 54a8 a93f
000000b0: b541 8fbd b1bf d23e c048 623d f8d7 21be
000000c0: 0058 c43e b4e6 a53c af27 693f c43d 293f
000000d0: cf14 2c3e 0250 c93f 9e93 84be 2876 46bd
000000e0: 5c56 0140 1e6c c43d 212a 623e c718 813e
000000f0: 21ae 7cbf 4703 efbe b907 753f 7be9 3dbf
00000100: d224 013f 0ca3 0b3e 0dbc 7cbe c22f b33f
00000110: 8413 bfbf 675d b63e df65 363f de81 8f3f
00000120: f28e 763e 892f 2b3f 757b b43f 594f 583f
00000130: 5a42 843f f103 993f a853 63bf 27ae ca3d
00000140: 4521 193f 176f 643f c8af 48be 8c78 983d
00000150: 46c1 473f 277a 993d 25fd 33be 193d a93e
00000160: b194 9c3e 135a ae3e 4477 16bc 3df7 ad3e
00000170: 37c4 c9ba be4a 103e 530c 56be 6734 463e
00000180: f5a6 b53e c5d7 323e 43fa c2bd 5668 ba3f
00000190: be3c e9be da3e 663e ea91 073f dc9c 1abf
000001a0: 4d28 0e3f 3bf3 0e3e ecce 46be e634 4abe
000001b0: 9d07 78bf 17ec 943d 6c09 0840 3639 c73d
000001c0: dd53 fd3d 8ec5 013f 1662 7a3f 7580 1b3f
000001d0: c938 d7be d829 e63f 62ff ae3e 5b37 f0bd
000001e0: 969e 453f 013d a53d 0c8d 803f e9aa 333f
000001f0: 84fd b3bd 25de 0ebf 187b 05be 1676 6e3f
00000200: ffb6 5a3f 306e b13f 8ea1 0ec0 13ee 553f
00000210: 0069 06bf 37d0 22bf 04bc 6a3f f66c 6fbf
00000220: 56f3 d1bb dd98 d03e bd97 553e 753e ac3f
00000230: 350c 8d3f ff58 66be 8a7a fe3e e018 90be
00000240: 0cf3 a3bd 4256 893f a3ee 593f d7c8 dbbd
00000250: 6340 203d c84d 823f aadb 183f 398f 8b3f
00000260: 2d09 58be 18d2 39be 71ef a6bf d40f a43f
00000270: 7cc6 c1bd 4528 5c3d e566 3fbe 2cf8 513f
00000280: 09be 6b3e 1976 cc3f d7ae 1bbe a3b4 af3f
00000290: 231f d13e 6136 673e 9fc6 113d dc5e f0bd
000002a0: 12eb 2e3f 5793 4d3f bbf8 f1be cbd3 963f
000002b0: 9a48 62be 2644 ef3e 6e6a fdbd 5fb5 81be
000002c0: 8db9 053f 0de0 a0bd aaea 623f 4704 c93e
000002d0: 4c48 8b3e 2983 963f e1f8 9bbe eef9 4dbe
000002e0: 2c83 ef3f 3a59 09be 61c3 a33d 8e21 be3e
000002f0: 9962 3ebf c209 5dbe 1f93 393f f713 5dbf
00000300: e70a 293f 1648 5b3e d5c1 983d 323e 9c3f
00000310: 85be 7dbf b6c6 e13e 46d5 2b3f 4ca5 923f
00000320: 80b6 8c3e 86b1 a63e 3fe4 9a3f 972e 8c3f
00000330: 1073 683f 57e1 a53f 04a4 52bf 999d 75bd
00000340: 970a 183e d8e9 703f a7e6 f8be b5c9 c33e
00000350: 3925 4a3f 5816 9cbc a050 49bd 22f5 9f3e
00000360: 0728 833e 1c31 d93e 6e42 c73d 3585 953e
00000370: 72c1 fdbd 9991 b53e 1634 78be dbbf 943e
00000380: d959 f73e 7f3c 283e 2f90 6fbe 6e7b d83f
00000390: e91b 97be 5123 973e 0b53 023f 1ada 1ebf
000003a0: 7743 c93e f7c2 2c3e 89cc 3fbe aec0 38be
000003b0: 7cc0 56bf 7a7d 8d3e 7cc6 ef3f 6c1a 123c
000003c0: 1eef 7e3e 5881 b53e 1f2d 563f 12c5 fc3e
000003d0: 2205 e2be 79e8 a63f 832d 3a3e ef1c c23d
000003e0: 4739 6a3f a1e4 0ebe 5e74 8a3f 5c68 3a3f
000003f0: 4b8f e93d 35d9 ffbe dc37 8fbe b1ad 253f
0.8882691 1.2761351 -2.0284412 0.8526391 -0.524259 -0.87989616 0.9256412 -1.1424388
0.088800795 0.6068266 0.27522713 1.3143371 1.1835557 0.05664277 0.66443956 -0.12873492
0.09758329 1.0658565 0.71498317 -0.122913025 -0.15956117 0.68021876 0.6132279 1.1484917
-0.39833415 -0.66344714 -1.2696853 1.0439345 -0.4487862 -0.06430809 -0.25788888 1.0425165
0.62559533 1.4732732 0.10552774 1.1263574 0.34944135 0.4014138 -0.039824232 0.25565162
0.89582783 0.5980436 -0.5403457 1.3254495 -0.069949545 0.41161874 0.05524516 -0.15805042
0.3834839 0.02025161 0.9107618 0.6610987 0.16804813 1.5727541 -0.25893873 -0.048452526
2.020896 0.09590934 0.22086383 0.25214216 -0.987032 -0.46682188 0.9571491 -0.7418439
0.5044681 0.13636416 -0.2468111 1.399895 -1.4927831 0.35618135 0.7124919 1.1211507
0.24077967 0.6686941 1.4100176 0.84496075 1.0332749 1.1954328 -0.88799524 0.09896498
0.5981639 0.8923201 -0.19598305 0.074448675 0.78029287 0.07494002 -0.17577036 0.33054426
0.30582193 0.34053096 -0.009183709 0.3397769 -0.001539356 0.14091012 -0.20903139 0.19355927
0.3547894 0.17465122 -0.0952039 1.4563091 -0.45554155 0.22484913 0.5295702 -0.603956
0.55530244 0.13959973 -0.19414872 -0.19746742 -0.96886617 0.07271593 2.125575 0.09727709
0.12369511 0.5069207 0.9780592 0.60742885 -0.4203551 1.798152 0.34179217 -0.11729308
0.7719511 0.08068276 1.0043044 0.70182663 -0.08788589 -0.55807716 -0.13035238 0.93148935
0.8543548 1.3861752 -2.2286105 0.835664 -0.5250397 -0.6359896 0.9169314 -0.93525636
-0.0064071817 0.40741625 0.20858665 1.345656 1.101935 -0.22494887 0.49702865 -0.28143978
-0.08005342 1.0729449 0.85129756 -0.107316665 0.039123904 1.0179987 0.5971018 1.0903083
-0.2109725 -0.1814655 -1.3041822 1.281733 -0.09461686 0.05374934 -0.18691595 0.82019305
0.23021711 1.597354 -0.15203415 1.3727001 0.40844068 0.22579338 0.03558981 -0.11736843
0.6832744 0.8030295 -0.4726008 1.1783384 -0.22098008 0.4673168 -0.123738155 -0.25333688
0.52236253 -0.07855234 0.8863932 0.39261076 0.27203596 1.1758777 -0.30463317 -0.20114872
1.8711905 -0.13412943 0.0799625 0.37134975 -0.743692 -0.21585754 0.72490114 -0.8635859
0.6603226 0.21414217 0.074588455 1.220648 -0.99118835 0.44096917 0.67122304 1.1456695
0.27482986 0.32557315 1.2100905 1.0951718 0.9080057 1.2959393 -0.8228152 -0.05996475
0.1484779 0.9410682 -0.48613474 0.38239828 0.7896305 -0.019053623 -0.049149156 0.3124171
0.25616476 0.4242028 0.09729467 0.2920319 -0.123904124 0.35462645 -0.24238619 0.29052624
0.48310736 0.16429327 -0.23394845 1.6912668 -0.2951348 0.29519132 0.50907964 -0.62051547
0.39309284 0.16871248 -0.18730368 -0.18042251 -0.8388746 0.27634794 1.8732448 0.008917432
0.24895903 0.35450244 0.836626 0.49369103 -0.4414454 1.3039695 0.18181424 0.09478175
0.9149365 -0.13954403 1.0816762 0.7281549 0.11404284 -0.49970403 -0.27972305 0.6471816

StatefulPartitionedCall/model/dense_1/BiasAdd/ReadVariableOp:0 f4 [128]
00000000: 27fa d5bc c68d a93e dcc9 73be fb86 58be
00000010: 4843 883e 6e0c 2d3f 7734 2fbd 7742 983e
00000020: c4e3 273f 14b6 203f cdf3 b13e ab50 bb3e
00000030: 05a9 b23d 5e68 a3be 78ac 823e de78 a5be
00000040: ab0f 7cbc 6cd7 8bbd 03bb cebe d688 ee3d
00000050: a01e 7c3e c4dd 2b3d 4e74 a7be 0768 d6b9
00000060: 5a63 193f 6f72 263f 0e36 703f c097 fdbe
00000070: 365a e13e cd83 173f d700 343f c5a4 b3be
00000080: 001a 80bb 2aa2 083e 1277 df3e 8bb5 9c3e
00000090: 7783 353f 0956 ea3e 16d0 dd3c 10be d23e
000000a0: 0b37 f3be c1b5 06bf 84b6 d53e 39d3 4abe
000000b0: 7b6c b23d 5236 22bd 0000 0000 f0c0 803f
000000c0: 9452 3cbf a67e 8a3e 9f29 ac3e 86dc c3be
000000d0: 3ec8 013f e0a2 6ebf f9b3 d53e 9428 273f
000000e0: a962 263e 2436 553e 65dd 50bf c30a a0be
000000f0: 58e4 333f 78cd 763e dfc9 83bf 28f7 ccbe
00000100: 9cb7 e43e 71ef ac3d 0979 59bc 2b44 83be
00000110: b944 6c3f fea9 d1be 164f 543f d927 c83e
00000120: a140 af3e 347f 3cbf 5f16 70be 33a2 f23d
00000130: ce41 e2be d53a 6c3c a407 313f 5b5d 13bb
00000140: 33ac e1be 2dcf 063f f068 fa3d 49db 943e
00000150: bd18 2e3f f2eb f2bb 57a6 383f ff53 4d3d
00000160: 47fb abbe b985 c43d 4f61 b33e 0b18 eebe
00000170: dc92 09bc c5e1 2cbf 3db0 883e 4c84 023f
00000180: e206 873e e15a ccbe d4d5 083f e8c2 66be
00000190: 7b17 013f cb11 c63e 44cf 0bbf a9a1 f73e
000001a0: 8843 27bf 8a2e 4c3f 174d 583f f779 343f
000001b0: f7bc 273f 1c30 8b3e e2cb 1bbf 491d e13e
000001c0: 81a5 173f 22c5 0fbf 6d1a c6be 53f9 5e3e
000001d0: 9151 403f 56bf 09be 0d0e c23e 4fc6 73bc
000001e0: ccb2 d9bd c6e0 a8bb 6053 de3e 4997 1cbe
000001f0: a9d2 2dbc c83b 0a3f 2446 653f d235 31bf
-0.026120258 0.33115977 -0.23807472 -0.21145241 0.26613832 0.6759709 -0.042774644 0.2973821
0.6558192 0.6277783 0.34756318 0.36584982 0.08723644 -0.31915563 0.25522208 -0.32318777
-0.015384595 -0.06828198 -0.40377054 0.11647193 0.24621058 0.04195954 -0.3270592 -0.00040894767
0.59917223 0.6501836 0.9383248 -0.4952984 0.44014138 0.5918549 0.7031378 -0.35086647
-0.0039093494 0.1334311 0.4364553 0.30607256 0.70903724 0.45768765 0.027076762 0.4116063
-0.47502932 -0.52621084 0.4174081 -0.19807138 0.08712097 -0.039602585 0.0 1.005888
-0.73563504 0.2704975 0.33625504 -0.38254184 0.5069617 -0.9321728 0.4173887 0.6529629
0.16248573 0.20821434 -0.8158782 -0.3125821 0.702703 0.24101818 -1.0295981 -0.40032315
0.44671333 0.08444107 -0.013273486 -0.25637946 0.9229236 -0.40950006 0.82933176 0.390929
0.34228995 -0.73631597 -0.23446034 0.11847343 -0.4419083 0.0144183235 0.69152284 -0.0022486064
-0.4407669 0.52659875 0.122270465 0.2907355 0.680065 -0.007413381 0.72128814 0.050128933
-0.33590147 0.09595818 0.35035178 -0.46502718 -0.00839683 -0.67531997 0.2669696 0.5098312
0.2637244 -0.39913085 0.53451276 -0.22535288 0.50426453 0.3868545 -0.5461314 0.48365524
-0.6533742 0.7975851 0.8449263 0.70498604 0.6552271 0.27185142 -0.60857975 0.43967655
0.59236914 -0.56160176 -0.38692036 0.21774797 0.7512446 -0.13451895 0.37901345 -0.014878823
-0.10629806 -0.005153748 0.43422985 -0.15292086 -0.010609307 0.5399747 0.8956015 -0.6922275

StatefulPartitionedCall/model/dense/MatMul/ReadVariableOp:0 f4 [9, 128]
00000000: 6690 89be b6be 08bf f79a b1bc ba1e f9be
00000010: a657 263e 531b a83f ed75 e7bc e1e9 aabe
00000020: f4e6 c1be cad4 0f40 22bd 3a3d c092 bbbe
00000030: 6423 993d ee43 263e 2280 61bd d65f aabb
00000040: 5234 fcbd 3814 bc3e 8252 90bc 6094 d43e
00000050: 02ad 6d3e c017 00bf 0422 8b3f 012f 263e
00000060: b66c 26bf 193e b33b 76ce d73d 36f5 d0bf
00000070: 67d3 803e 0154 a93e 325d 1c40 2df3 aabd
00000080: 7b25 06bd fc1a b2bc c714 983d f7d7 563e
00000090: a41c 52bf eeb3 a63d e8f2 0ebf d150 173f
000000a0: f58f 7b3e 69dc 503f bc7c b63e 235a d0bd
000000b0: a4cf ad3f 7458 9e3d 31dd 413d f6be 53bf
000000c0: 55df b93e 517f b63e 3ea5 36be 8e8b f4bd
000000d0: 9bc4 a4bd f4da 61be 9425 c5be 2331 903e
000000e0: 1915 17be 95e6 213f 17f1 c2bd a9cb 633d
000000f0: 10e2 11bd b3bf 31be e820 f4bd 32ee 0f3e
00000100: 8205 c5be fc70 c53f a1ec 4abd 62b2 87bd
00000110: 0d11 1fbf 8a19 1fbe e6d6 093d d400 49bf
00000120: 16ad 013f 7085 b73e 3e2f 76bf 3085 e83d
00000130: 7f4a 4e3f 9789 25bf 0aa8 b7bd e300 36be
00000140: a309 01bf 9370 13bc a884 b0bd ce64 afbe
00000150: fbd1 013d d55a 963e cd7f e8bd 37c3 6a3e
00000160: 0e4f d43f 1910 89be 83b5 4cbf 8e35 373e
00000170: bf94 38bd 7489 9f3e 05ea aa3b d91a fbbc
00000180: ba92 58be 7a10 8c3e fbcd 2abf 3957 1a3d
00000190: 4554 1dbd 3927 adbf f95d 64be 862a 94be
000001a0: 7956 55be ee5d ea3e da55 22bf dacb 103e
000001b0: 9b35 973c a686 91bd 1645 5fba 645e bfbf
000001c0: 228a 8abf b364 55be efc1 04bd 5b9c 923e
000001d0: a288 3f3e db51 16be b658 783e 44ea f1bf
000001e0: 5f0f 923c 2679 963d 7bf7 e8be b536 49be
000001f0: d366 04bd bb75 06bc 71a4 b6bd 18af 5e3d
00000200: d980 913f 4cc6 8c3e e827 c53d 13dc cb3d
00000210: 9136 c83c 2075 443f 9f53 5a3d 52f7 17bf
00000220: af1e f13e da9c b93e 4b1a 993d 9b14 ca3f
00000230: 34fe 9bbe 1701 8a3d 59d6 963d 7725 9a3d
00000240: c4d2 8bbe f4c1 873e 81b1 71bd 31c7 43be
00000250: 237e 98be 3e38 0ebf ff7a 5ebf 6e50 533d
00000260: 2185 8f3d a9fe 7c3c 0e2b 54bd 58bf 22c0
00000270: 3ccd f6bd 044b 3ebf 2073 f9be bfaf 53bd
00000280: df57 da3d 4a43 583d 2df6 b63e 1718 9abe
00000290: 3834 f73f 1947 d2bd d06f 94bf 27db a8be
000002a0: 13f0 49be 46f5 8dbe 180f d23d ac70 983c
000002b0: 4280 fd3e 61b9 913f c11c 0bbe eff2 b7be
000002c0: 661f 14bf 83d8 45be 12c4 383f c590 5bbd
000002d0: 0957 fa3f 6b9f 8e3f 7f44 d9be 4ab3 ae3d
000002e0: fd28 afbd 09d6 5ebd a56b f83d 364a 8bbe
000002f0: 0ad5 bc3d 26dc babe bc92 323e 705e eb3e
00000300: c285 25be 73fb bbbe 7487 153d 4c70 47bf
00000310: bdf0 83bd cadc 393d 1a5e 133d fc2f fc3e
00000320: 1a77 0abf 2083 abbe e387 823e 2ce2 e23e
00000330: a2bd e33a 46de cbbe 1a35 bb3f 573d d7be
00000340: e71e e43e 4958 1e3c 4243 dc3c 6d85 313e
00000350: b6c8 3b3c 9b8e 0b3f e5e8 79bd ced5 1a3f
00000360: 338c 23bf 2955 443e 309c 503e 3ebc 1cbf
00000370: 16d4 1ebe e118 1a3f c68e e1bd 2a5e 7bbe
00000380: c841 22bf fe21 09be 2a25 0cbf 059b 3d3e
00000390: 3ad1 c93c a16b a0be 778a b9be b2c1 44bd
000003a0: 93d6 283b dbe7 093e 6207 ccbe 7175 b4bd
000003b0: ae77 d73d a78d 7fbd ede5 a33c b05a 5b3f
000003c0: 9142 4fbf 9cd7 343e fcfe 0abe d108 63bf
000003d0: 8b64 7ebd 72d8 80bf 9814 bdbd 73ce b6be
000003e0: edb9 423c 3764 05be a4b8 5e3f 7799 753e
000003f0: a08c 0c3d 5285 60bf 4c0a ad3d 2a9f eb3c
-0.2686798 -0.53416 -0.021680338 -0.48656255 0.16244373 1.3133339 -0.028254474 -0.3338156
-0.37871516 2.2473626 0.045590527 -0.366354 0.07477453 0.1623685 -0.055053838 -0.005199413
-0.12314667 0.36734176 -0.017617468 0.4151945 0.23210528 -0.5003624 1.0869756 0.16228868
-0.6500963 0.005470049 0.10537426 -1.6324832 0.25161287 0.33071902 2.4431882 -0.08347163
-0.032750588 -0.021741383 0.07425838 0.20980822 -0.8207495 0.081397876 -0.55839396 0.5910769
0.24566634 0.8158632 0.3564204 -0.10173442 1.3578992 0.07731715 0.047330085 -0.8271326
0.363032 0.3564401 -0.17836472 -0.119406804 -0.08045312 -0.2205618 -0.38505232 0.28162488
-0.14754142 0.63242465 -0.095186405 0.055614147 -0.03561598 -0.17358284 -0.11920339 0.14055708
-0.38480765 1.5425105 -0.049542073 -0.06625821 -0.6213539 -0.15537086 0.03365221 -0.7851689
0.50654733 0.35843992 -0.96165836 0.113535285 0.8058242 -0.6466307 -0.08967598 -0.17773776
-0.5040533 -0.008999008 -0.08619052 -0.34256595 0.031694394 0.29366174 -0.11352501 0.22926031
1.6586626 -0.26770094 -0.79964465 0.17891523 -0.04506373 0.31159556 0.0052158856 -0.03065245
-0.21149722 0.2735632 -0.6672055 0.03768084 -0.038410444 -1.3527595 -0.22301473 -0.28938693
-0.20833768 0.45774788 -0.6341225 0.14140263 0.018458178 -0.0710576 -0.00085170695 -1.4950681
-1.0823405 -0.20839195 -0.032411512 0.28634915 0.18704465 -0.14679663 0.2425259 -1.8899617
0.017829595 0.07347326 -0.45501313 -0.19649775 -0.032324623 -0.00820678 -0.089180835 0.0543662
1.1367446 0.27495039 0.09626752 0.09954085 0.024440082 0.7674122 0.053302404 -0.59361756
0.47093722 0.3625248 0.07475718 1.5787538 -0.3046738 0.06738489 0.07365102 0.07526677
-0.2730924 0.26515162 -0.05900717 -0.19118954 -0.29783735 -0.5555457 -0.8690643 0.051590376
0.07007814 0.015441575 -0.051798873 -2.5429287 -0.12050864 -0.74333215 -0.48720646 -0.051681276
0.10661291 0.052798547 0.35734692 -0.30096504 1.9312811 -0.10267467 -1.1596622 -0.329797
-0.19720487 -0.2772619 0.10256785 0.018608414 0.49511915 1.1384698 -0.13585187 -0.3592753
-0.5786041 -0.19320874 0.7217418 -0.05360486 1.9557811 1.11424 -0.4243507 0.085302904
-0.0855274 -0.05440334 0.121299066 -0.27205056 0.092203215 -0.36496085 0.17438787 0.45970488
-0.16164306 -0.36715278 0.03650613 -0.77905726 -0.064424016 0.045376576 0.035978414 0.4925536
-0.54087985 -0.33498478 0.25494298 0.4431318 0.001737524 -0.3981802 1.462558 -0.42038986
0.44554827 0.0096646035 0.02688754 0.17336054 0.011461427 0.54514474 -0.06101312 0.6048249
-0.638858 0.19173111 0.20372081 -0.61224735 -0.15510592 0.6019421 -0.1101356 -0.2454764
-0.63381624 -0.13391873 -0.5474421 0.18516167 0.0246359 -0.31332114 -0.36238453 -0.048036285
0.0025762662 0.13467352 -0.39849383 -0.08811463 0.10520874 -0.06239095 0.020007098 0.85685253
-0.8096095 0.17660373 -0.13573831 -0.8868533 -0.062107604 -1.0066054 -0.092324436 -0.35704383
0.0118851485 -0.1302651 0.8700049 0.23984323 0.034313798 -0.8770343 0.084492296 0.028762419

StatefulPartitionedCall/model/dense/BiasAdd/ReadVariableOp:0 f4 [128]
00000000: 4be2 533e 7df0 613e e0fc 1240 03b6 053f
00000010: 55a3 423f 5da5 32be 3042 12bf 3ef0 fabd
00000020: 026e cd3f d788 1abe 20c4 0d40 9f02 48be
00000030: 7391 ec3f dcc3 0440 424c e93f 1eb4 1e3f
00000040: a75a b13f 8e6e 913f 6687 1140 66b8 96bd
00000050: 5e85 e9bd d75f dcbd 6e85 64be e4c8 dd3f
00000060: aa87 253d 383c b03f 53f7 0140 3a70 b0bd
00000070: 2ca2 b9bd 4edf 5f3f bee6 cc3c 884b 6f3f
00000080: f06f a53f 71ca a73f 7732 393f 7ce1 063c
00000090: b247 27be b12a 8c3f 8694 233e b661 123f
000000a0: f57a 1c40 415a 603e 2c26 7d3e 3a90 d13f
000000b0: e032 e3bd 9c3f 5abe f4c0 c8be bb7b 0fbe
000000c0: 0416 ccbd 1317 e13e e368 fe3e ef60 a1be
000000d0: 5826 f23e b9a8 903e f98e a13f 451f 2040
000000e0: e755 1b40 024e 01be b34c 8d3f c1d2 5240
000000f0: 9b77 2940 1a46 85be c9e7 0740 02fe c73f
00000100: db5d 9c3b 4ea7 2c3f 96c8 163f d73d 2b3f
00000110: 73b9 ffbd 0825 10c0 e926 9e3f e26d 6ebe
00000120: 36ab 51be da21 93bc cc2a 89be 27dc e83e
00000130: 25a8 fd3e e113 513e 6489 b6bd c7a6 e53e
00000140: 3642 4fbd 44f7 be3f 284e 1940 5930 e6bb
00000150: 2c9b b13f 728a 1b3f 17bd 65bf fc6c 66be
00000160: 61ad d2bd 3e42 73be 82ce 0b3f 807e fc3e
00000170: 0644 0c40 8119 c0bd 277b b73f 920a 5cbe
00000180: 1953 573f 6e59 50bf 263d d9bd b12d 0340
00000190: f187 2dbf 60cb 383f 5b3f 0240 77f3 1640
000001a0: facc 3b3f fedb 3b3d 3187 04be a030 0140
000001b0: 94dc ab3f 2d7d c33e 0846 903f ab38 a3bd
000001c0: 50f9 693e 6685 0d40 52ba 373f a816 40be
000001d0: b458 193f 895a 42be e3b9 9cbf aa77 20be
000001e0: 2478 35c0 ef58 543f d3bb 263f 88c3 5abe
000001f0: 03f1 233f 1c34 a93e a7c3 1d40 7c2f e73f
0.20691793 0.22064395 2.2966843 0.5223085 0.76030475 -0.17445894 -0.57132244 -0.12252854
1.6049197 -0.15091263 2.2150955 -0.1953225 1.8481888 2.0744543 1.8226397 0.61993587
1.385579 1.1361864 2.273889 -0.0735939 -0.11402391 -0.107604675 -0.22316524 1.7326932
0.040412582 1.3768377 2.0307205 -0.086151555 -0.09064135 0.8745011 0.02501237 0.93474627
1.2924786 1.3108655 0.7234263 0.008232471 -0.16335943 1.0950528 0.15974626 0.57180345
2.4450047 0.21909429 0.24721593 1.637214 -0.11093688 -0.21313328 -0.39209712 -0.14012043
-0.09965137 0.43962917 0.49689397 -0.31519267 0.4729488 0.28253725 1.2621757 2.5019085
2.427118 -0.12627414 1.1039032 3.2941134 2.6479251 -0.26030046 2.123522 1.5624392
0.0047719306 0.67442787 0.5889982 0.66891235 -0.124865435 -2.2522602 1.2355624 -0.23284104
-0.20475468 -0.017960478 -0.26790464 0.45480463 0.49542347 0.2041774 -0.08912924 0.44853804
-0.050600253 1.491921 2.3953953 -0.0070248065 1.387548 0.60758126 -0.89741653 -0.22502512
-0.10286976 -0.23755738 0.5461198 0.49315262 2.1916518 -0.093798645 1.4334458 -0.21488407
0.8411117 -0.8138646 -0.10607366 2.0496638 -0.67785555 0.72185326 2.035117 2.35861
0.73359644 0.045864098 -0.12942196 2.0185928 1.342669 0.3818144 1.1271372 -0.07969793
0.22849011 2.211267 0.7176868 -0.18758643 0.59900975 -0.18979849 -1.2244228 -0.15670648
-2.8354578 0.829482 0.65130347 -0.21363652 0.6403963 0.3304757 2.4650667 1.8061366
