tracknnanalysis-master/TrackNNAnalysis/data/ExtrapolationModelsITK/Extrap_MLP_ITK_ws3.onnx (onnx, 196801 bytes, 8 tensors)

StatefulPartitionedCall/sequential/dense_3/MatMul/ReadVariableOp:0 f4 [32, 3]
0	0x3e36410d	0.17798252
1	0x3e99980a	0.2999881
2	0x3e0506c4	0.12990862
3	0x3d35df0b	0.044402163
4	0xbe98b9e0	-0.2982931
5	0x3e400e3d	0.18755431
6	0x3e33f3bb	0.17573445
7	0x3e333102	0.17499164
8	0x3e431441	0.19050695
9	0x3d5cfa66	0.053949736
10	0xbe802f1e	-0.25035948
11	0x3e5965cf	0.21230243
12	0x3e3da302	0.18519214
13	0x3e70b637	0.2350701
14	0xbeb493ef	-0.35269114
15	0x3e8aa1b4	0.27076495
16	0xbda309f4	-0.07960883
17	0xbe8d04b1	-0.27542642
18	0x3ea07938	0.31342483
19	0xbe7a906f	-0.2446916
20	0x3d61a7fe	0.05509185
21	0x3e4344b5	0.19069178
22	0x3b0b1264	0.0021220678
23	0x3eb0034f	0.34377524
24	0xbd080ac1	-0.03321338
25	0x3e8f16ba	0.27947026
26	0xbcd5eca0	-0.026113808
27	0xbeb2d4b9	-0.3492792
28	0x3d2f74be	0.042835943
29	0x3e86d37d	0.26333228
30	0xbec318bd	-0.3810481
31	0x3eb47a5b	0.352496
32	0x3dd94bac	0.106101364
33	0xbe847edb	-0.25878033
34	0xbdd4b3c9	-0.10385854
35	0x3d879d5f	0.06621813
36	0x3e51d56d	0.20491572
37	0x3e87d4a4	0.2652942
38	0xbdbce03e	-0.09222458
39	0x3d332a26	0.043741368
40	0xbeb9354a	-0.3617347
41	0x3db0bf0d	0.0863019
42	0xbe48415a	-0.1955618
43	0x3e99d0b5	0.30042043
44	0x3ed63ca3	0.41843137
45	0x3eb578d9	0.35443762
46	0xbdff9d66	-0.12481193
47	0xbe8b7ccb	-0.27243647
48	0xbee9615e	-0.45582098
49	0x3cbbc183	0.022919422
50	0xbe3165f0	-0.17324042
51	0x3e7fb567	0.24971543
52	0xbeabd4ef	-0.33560893
53	0x3e3f4679	0.18679227
54	0xbe8a21f1	-0.2697902
55	0xbe59a9ab	-0.2125613
56	0xbe94611d	-0.28980342
57	0xbda29083	-0.0793772
58	0x3e729f13	0.23693494
59	0xbe1f1c5d	-0.15538163
60	0x3d7391cc	0.059465215
61	0xbe5ede85	-0.21764572
62	0xbeb4645a	-0.35232812
63	0xbd852937	-0.06502002
64	0x3d771641	0.060323957
65	0xba4f8bcf	-0.00079172564
66	0xbeeddebd	-0.46458998
67	0xbe7e9438	-0.24861228
68	0xbdbbd6bd	-0.091718175
69	0x3e59918b	0.21246926
70	0xbeda63e6	-0.4265434
71	0xbe262cf5	-0.16228087
72	0x3d73c606	0.05951502
73	0x3e91618f	0.28394744
74	0x3e2f0a5d	0.17093797
75	0xbf72e0df	-0.94874376
76	0xbe00bffb	-0.12573235
77	0x3c878e23	0.016547268
78	0x3ebb2ddc	0.36558425
79	0xbebe305d	-0.37146273
80	0xbdc288d9	-0.09498758
81	0xbece2583	-0.40262994
82	0xbeb3933f	-0.35073277
83	0xbea3de28	-0.3200543
84	0x3ea5c4ed	0.32376805
85	0xbd694e3c	-0.056959376
86	0x3e378361	0.17921211
87	0x3d633b2c	0.055476353
88	0x3fac9e8d	1.3485886
89	0xbc2709c3	-0.0101951985
90	0xbe8bf8f2	-0.27338368
91	0xbeb621d6	-0.3557269
92	0x3e6b42a9	0.22974648
93	0xbedf394b	-0.435984
94	0xbd5af092	-0.053452082
95	0xbe3a0b75	-0.18168433

StatefulPartitionedCall/sequential/dense_3/BiasAdd/ReadVariableOp:0 f4 [3]
0	0x3cb4ac78	0.022054896
1	0x3caed900	0.021343708
2	0xbbf7f88a	-0.00756747

StatefulPartitionedCall/sequential/dense_2/MatMul/ReadVariableOp:0 f4 [256, 32]
0	0xbdd30841	-0.10304309
1	0xbe21a920	-0.15787172
2	0x3d2e6f92	0.04258687
3	0xbdc06769	-0.09394724
4	0x3e419a2d	0.1890647
5	0x3d6dd27c	0.05806206
6	0x3d21178f	0.039329108
7	0xbd0af062	-0.033920653
8	0x3e02a0ca	0.12756649
9	0xbd837cfa	-0.06420322
10	0x3e18f1e8	0.1493603
11	0xbcd33999	-0.0257843
12	0x3e2fb8e1	0.1716037
13	0x3c62e327	0.013848103
14	0x3dc02640	0.093822956
15	0x3d848f2a	0.06472619
16	0xbe563232	-0.20917585
17	0xbe2c81c7	-0.16846381
18	0xbd0a6c58	-0.03379473
19	0x3d71c873	0.059029054
20	0xbda8ee1f	-0.08248543
21	0xbdad7453	-0.08469453
22	0xbe936087	-0.28784582
23	0xbed42654	-0.41435492
24	0xbc4f0dec	-0.012637597
25	0x3b2216c1	0.00247328
26	0xbe1110b3	-0.14166526
27	0xbdf5dac9	-0.120046206
28	0x3d18713a	0.037217356
29	0xbecb68ca	-0.39728385
30	0x3d493eda	0.049132206
31	0xbda28ee8	-0.079374135
32	0xbda448f5	-0.08021728
33	0xbd748775	-0.059699494
34	0x3cca3c10	0.024686843
35	0xbda884ac	-0.0822843
36	0xbe4b0ab3	-0.198283
37	0xbd8023a0	-0.06256795
38	0x3e163768	0.14669573
39	0xbe397c95	-0.1811393
40	0xbd3435ae	-0.043996505
41	0xbcc34853	-0.023838198
42	0x3e06b8f9	0.13156499
43	0xbcd00150	-0.02539125
44	0xbdd60caf	-0.10451638
45	0x3c7a8637	0.015290788
46	0xbda68a17	-0.08131807
47	0x3d05b99d	0.032647718
48	0x3d353d10	0.044247687
49	0xbe0aa962	-0.13541177
50	0x3db1929e	0.08670543
51	0xbdabe7de	-0.083938345
52	0x3d9f2712	0.07771124
53	0x3df30e4f	0.118679635
54	0x3e0c5d8b	0.13707559
55	0x3cc5cf45	0.024146685
56	0xbcfb03f9	-0.030641543
57	0x3ce90e11	0.02844909
58	0xbda46227	-0.080265336
59	0x3e432045	0.19055279
60	0x3db24f65	0.087065496
61	0xbe52f234	-0.20600206
62	0x3e279b9b	0.16367953
63	0x3d20a5bf	0.039220568
64	0xbe08486e	-0.1330888
65	0x3b0ceec2	0.0021504615
66	0x3ae9c849	0.0017836179
67	0xbd3c6dce	-0.046003155
68	0x3c53ff6e	0.012939317
69	0xbcba7ae1	-0.022763671
70	0xbdc10cb0	-0.09426248
71	0x3e167fe4	0.14697224
72	0xbd2048c5	-0.0391319
73	0x3dee45cb	0.11634406
74	0xbc9931b1	-0.018700453
75	0x3d5b72c7	0.053576257
76	0xbde7b0f2	-0.113130465
77	0x3def2883	0.11677649
78	0x3ddb1b22	0.106985345
79	0x3e14ff1e	0.14550444
80	0x3e3c5b88	0.18394291
81	0x3dee0b52	0.11623253
82	0x3d51c743	0.05121542
83	0x3dc245ad	0.09485946
84	0x3df3e9b7	0.11909812
85	0x3e04297b	0.12906449
86	0xbcfe2c87	-0.031027092
87	0x3daaf495	0.083474316
88	0x3d995097	0.074860744
89	0xbd418cb3	-0.04725332
90	0x3e0b1884	0.1358357
91	0xbe0709de	-0.13187358
92	0xbdc6d5da	-0.09708758
93	0x3cc567a6	0.024097275
94	0xbc717aff	-0.014738797
95	0x3e31a9e5	0.17349966
96	0xbd0740d1	-0.033020798
97	0xbe21ca17	-0.15799747
98	0x3c1fa029	0.009742775
99	0xbcf1b84e	-0.029506829
100	0x3dc96f4f	0.098356836
101	0x3df49081	0.119416244
102	0x3c103bed	0.00880335
103	0x3e09f58b	0.13472573
104	0x3e2b9dd8	0.16759431
105	0x3dc096a7	0.09403735
106	0xbd7d2ff3	-0.061813306
107	0x3df96d9c	0.121791095
108	0xbd908b47	-0.07057815
109	0x3c32ff37	0.010925106
110	0x3d04269f	0.032263394
111	0x3de4f78a	0.11180027
112	0x3bf99f91	0.0076178988
113	0x3d71ec39	0.05906317
114	0xbbd9bda7	-0.006644923
115	0xbce988f2	-0.028507683
116	0x3dde47f7	0.1085357
117	0x3c314d19	0.010821604
118	0x3d2982d2	0.041384526
119	0xbda11b21	-0.078665026
120	0xbd1ba6ee	-0.038000993
121	0xbd803d73	-0.062617205
122	0x3d0c4737	0.034247603
123	0xba15cbcd	-0.00057142676
124	0x3e57437e	0.2102184
125	0xbb7e374d	-0.0038790286
126	0xbcceab66	-0.025228214
127	0x3d29e3f9	0.041477177
128	0x3dfca9f2	0.12337102
129	0xbe8a5fcd	-0.27026215
130	0xbda0d45a	-0.07853003
131	0xbe13dcab	-0.14439647
132	0x3c067879	0.008207434
133	0x3e1540db	0.14575522
134	0xbda3569b	-0.07975503
135	0xbe1966af	-0.14980577
136	0x3c9b583e	0.018962976
137	0x3cab165b	0.020884683
138	0x3de9ea69	0.11421663
139	0xbdbdd24d	-0.09268627
140	0x3e27273f	0.16323565
141	0x3c9b13a3	0.018930262
142	0xbdf0ee59	-0.11764211
143	0xbd9e337b	-0.07724663
144	0x3e1a6d44	0.15080744
145	0xbde64db0	-0.112452865
146	0xbe4803df	-0.19532727
147	0xbbfe2082	-0.00775534
148	0xbe2ae9e9	-0.16690792
149	0x3c4f7ec9	0.012664505
150	0xbba3f451	-0.00500349
151	0xbee87401	-0.45401004
152	0x3de785b8	0.11304802
153	0xbde67084	-0.112519294
154	0xbeadc888	-0.33942056
155	0xbe07c1f5	-0.13257582
156	0xbda23c6d	-0.079216816
157	0x3ed4e96d	0.4158434
158	0xbd744b07	-0.059641864
159	0x3e1d83ea	0.15382352
160	0xbd6d5c18	-0.057949156
161	0x3d0da103	0.03457738
162	0x3d14864b	0.036260884
163	0x3d6982a0	0.05700934
164	0xbc84b51c	-0.01619964
165	0x3caf3a20	0.02139002
166	0xbde18be7	-0.110130124
167	0xbdd861c2	-0.10565521
168	0x3e142619	0.14467658
169	0xbc2b192e	-0.010443015
170	0xbd63619d	-0.055513013
171	0x3d63f040	0.055649042
172	0x3d9048b1	0.07045115
173	0x3dac0103	0.083986305
174	0x3dea5f9a	0.11444016
175	0xbdfe18fe	-0.12407111
176	0x3d847f86	0.06469636
177	0xbdd49937	-0.10380786
178	0x3de8b7f3	0.113632105
179	0x3d6d1add	0.057886947
180	0xbe027eaa	-0.12743631
181	0xbd034925	-0.032052178
182	0x3db3935f	0.08768343
183	0x3d2b4de6	0.041822337
184	0xbdd9c54a	-0.10633333
185	0xbd4b16ce	-0.049582295
186	0x3d7f77e7	0.062370207
187	0x3b9e442c	0.004829904
188	0xbd0b19a4	-0.03396
189	0xbd6f4839	-0.058418486
190	0x3d2d303b	0.042282324
191	0x3c53d2d5	0.012928684
192	0x3df8995f	0.12138628
193	0x3ddcb664	0.10776976
194	0x3c152e0d	0.009105218
195	0x3e3149ef	0.1731336
196	0xbe2015d1	-0.15633322
197	0x3e44a952	0.19205216
198	0x3e1a9a98	0.15098035
199	0x3e6930e9	0.22772564
200	0xbdff7e39	-0.12475247
201	0x3db27606	0.087139174
202	0x3d22aef2	0.039717622
203	0xbd7427a4	-0.059608117
204	0x3bd99591	0.006640144
205	0xbdc4ea14	-0.09614959
206	0x3e5131ad	0.20429106
207	0x3cb95c8c	0.022627138
208	0xbe6e8139	-0.23291482
209	0xbcf7487a	-0.030185927
210	0xbe1a57b3	-0.15072517
211	0xbdeee7f3	-0.116653346
212	0xbd7b5097	-0.061356153
213	0xbe22b19f	-0.1588807
214	0x3d27e890	0.040993273
215	0xbb0e5e6c	-0.002172376
216	0xbd0eba11	-0.034845416
217	0xbc714e80	-0.0147281885
218	0x3d1fcd59	0.039014194
219	0xbdda3662	-0.10654904
220	0x3e1d55c8	0.15364754
221	0x3e89fa25	0.26948658
222	0xbd3103a0	-0.043216348
223	0xbd9df1da	-0.07712145
224	0x3dab13c4	0.08353379
225	0xbdf87bce	-0.12132989
226	0xbcc5ebba	-0.024160255
227	0x3cc03fcf	0.023467926
228	0xbadccb40	-0.0016845241
229	0x3d971ccf	0.07378542
230	0xbcb8c431	-0.022554489
231	0xbdc7f851	-0.097641595
232	0xbd6490d6	-0.05580219
233	0x3dc0ef0e	0.09420596
234	0xbd161615	-0.036642153
235	0xbdd0e3d1	-0.101997025
236	0x3dc164dd	0.09443066
237	0x3e0ad788	0.13558781
238	0x3cdb31b4	0.026757099
239	0xbd866920	-0.0656302
240	0x3e19e8b8	0.15030181
241	0x3e134cd7	0.14384781
242	0x3d4c8d07	0.04993918
243	0xbd40e37c	-0.047091946
244	0x3d74c3b4	0.05975695
245	0x3e0db7e2	0.13839677
246	0x3c207316	0.009793064
247	0x3da5adc9	0.080897875
248	0x3ceb1922	0.028698508
249	0x3dec4a30	0.11537588
250	0xbd9a065c	-0.07520744
251	0x3dd044f0	0.10169399
252	0x3c406421	0.011742623
253	0xbdea0578	-0.11426824
254	0x3e0b05f9	0.13576497
255	0x3d2c085b	0.042000156

StatefulPartitionedCall/sequential/dense_2/BiasAdd/ReadVariableOp:0 f4 [32]
0	0xbba218d6	-0.0049468083
1	0x3c052741	0.008127035
2	0xbc0ad8e3	-0.008474561
3	0x3cc1c90f	0.023655443
4	0x3cb4826a	0.022034843
5	0x3b83e49b	0.0040250546
6	0x3c76e345	0.015068834
7	0x3ca3e01a	0.02000432
8	0x3c954285	0.018220196
9	0x3cc062c9	0.023484604
10	0x3c69ccb6	0.014269998
11	0x3bef6397	0.007305573
12	0x3ca70391	0.020387443
13	0x3c5782ae	0.013153715
14	0x3c682c51	0.014170722
15	0x3c91b8e3	0.017788356
16	0x3ca541c0	0.020172954
17	0x3c8d3aca	0.017239947
18	0x3c943482	0.018091444
19	0xbc1e72cc	-0.009670924
20	0x3c8b3062	0.016990844
21	0x3c075b8b	0.008261572
22	0x3c88a4b4	0.0166801
23	0x3c7bb9ab	0.015364091
24	0x3c976f15	0.018485585
25	0xbaa715ac	-0.0012747548
26	0x39f6bb18	0.00047060172
27	0x3c844ff1	0.0161514
28	0x3c845336	0.01615296
29	0xbb4d2618	-0.0031303223
30	0x3c05a8a5	0.008157884
31	0x3c6bd20c	0.014393341

StatefulPartitionedCall/sequential/dense_1/MatMul/ReadVariableOp:0 f4 [128, 256]
0	0xbda9a747	-0.08283859
1	0x3e4325ac	0.1905734
2	0x3e3208e2	0.17386201
3	0x3cdfe382	0.027330164
4	0x3d85d680	0.06535053
5	0xbd03f3fb	-0.0322151
6	0x3e6fa05a	0.23401013
7	0x3dd0009f	0.101563685
8	0xbd616d6e	-0.055036
9	0xbd60b0fd	-0.05485629
10	0xbce0ff23	-0.027465409
11	0x3dff8b48	0.12477738
12	0x3e1623a6	0.14662036
13	0x3c92191d	0.01783424
14	0x3e440ca2	0.19145444
15	0xbc8ad657	-0.016947908
16	0xbd5b361a	-0.053518392
17	0xbdd2a924	-0.10286167
18	0x3d2497bb	0.040183764
19	0xbdec0932	-0.11525191
20	0x3dbf38e4	0.09337023
21	0xbd60f787	-0.05492356
22	0x3e26ce3f	0.16289614
23	0xbe1e3223	-0.15448813
24	0xbcf39afc	-0.029736988
25	0x3d92f691	0.07175935
26	0xbceb0670	-0.028689593
27	0xbceda8ad	-0.029011095
28	0xbdebf22c	-0.115208
29	0x3b892557	0.0041853595
30	0xbd5737fc	-0.052543625
31	0xbd55ac44	-0.05216624
32	0x3d0ca260	0.03433454
33	0x3e01ff51	0.12695052
34	0xbde4f167	-0.11178856
35	0xbe156848	-0.14590561
36	0xbe3273c8	-0.1742698
37	0xbe146549	-0.14491762
38	0xbd9875d9	-0.07444353
39	0x3d01f8d9	0.03173146
40	0xbd84bcf3	-0.06481352
41	0x3d84dec3	0.06487801
42	0xbe463ce9	-0.19359173
43	0xbdaeb3bf	-0.085303776
44	0x3cadf53e	0.021235105
45	0xbd727ab5	-0.059199054
46	0xbe1c566d	-0.15267344
47	0xbc85925e	-0.016305145
48	0xbd14ba3b	-0.036310416
49	0xbd85a26e	-0.06525122
50	0xbc7ff930	-0.015623376
51	0x3e510996	0.20413813
52	0x3d8e98f8	0.0696277
53	0xbe0e6866	-0.13907012
54	0x3dfa7964	0.12230185
55	0xbc42b6cb	-0.011884402
56	0x3c0849ce	0.008318378
57	0x3da2636f	0.07929122
58	0xbecb0568	-0.39652562
59	0x3d74a10e	0.059723906
60	0x3d442374	0.047885373
61	0x3c904553	0.017611181
62	0x3e5f4ec0	0.21807384
63	0xbe568af9	-0.20951451
64	0xbdf499c9	-0.11943395
65	0x3de3d1e6	0.11124019
66	0x3e1bdf06	0.15221795
67	0x3e2b13c7	0.16706763
68	0x3d9262fa	0.071477845
69	0x3c753ae2	0.014967652
70	0x3d688400	0.05676651
71	0x3c6ebf1a	0.014571929
72	0x3d3fa30a	0.046786346
73	0x3cf4529d	0.02982455
74	0x3e477d10	0.19481301
75	0x3e03c278	0.12867153
76	0xbd2498ed	-0.040184904
77	0x3d54d475	0.051960427
78	0xbdb5346d	-0.0884789
79	0xbe14ddf8	-0.145378
80	0x3c3796bf	0.011205374
81	0xbd7b784a	-0.061394013
82	0x3d03bd10	0.032162726
83	0xbd29fe51	-0.0415023
84	0x3d963fb4	0.07336369
85	0x3c21fa93	0.009886402
86	0xbb1bf2b1	-0.0023795778
87	0xbc305758	-0.010763012
88	0x3da77d1d	0.0817816
89	0xbce768c4	-0.028248198
90	0x3c34a8ac	0.011026543
91	0xbdaf037f	-0.08545589
92	0x3c4afb6d	0.012389046
93	0xbd0102f9	-0.031496976
94	0xbbcff7b3	-0.0063466667
95	0xbe043a8f	-0.12912963
96	0x3d26bf0f	0.04070955
97	0x3d1f2886	0.038857006
98	0xbd41832f	-0.047244247
99	0x3c4853a9	0.012226977
100	0xbcf377c9	-0.029720204
101	0x3bd8e45a	0.0066190185
102	0xbd150fb6	-0.036391936
103	0x3dfc617e	0.12323283
104	0xbe314632	-0.17311934
105	0xbe256969	-0.16153492
106	0xbc9c2b4f	-0.01906362
107	0xbd03aff0	-0.03215021
108	0x3d1424dc	0.036167964
109	0xbe227d3b	-0.15868084
110	0xbe2c4715	-0.1682399
111	0xbcc460d1	-0.023971947
112	0x3c160153	0.009155589
113	0x3d2c7a6a	0.04210893
114	0xbc9b04ad	-0.018923128
115	0xbcba4e6e	-0.022742476
116	0x3d967762	0.07346989
117	0xbd254936	-0.040353023
118	0x3d9e777a	0.07737632
119	0xbdb9f049	-0.09079034
120	0xbd6bb385	-0.05754425
121	0xbe053d4c	-0.13011664
122	0xbe07eafc	-0.13273233
123	0xbdabb100	-0.083833694
124	0x3c7e6b50	0.015528515
125	0x3e364d28	0.1780287
126	0xbce68f76	-0.02814458
127	0xbe8c1cab	-0.27365622
128	0x3d949732	0.07255401
129	0xbe2f0704	-0.1709252
130	0xbc916750	-0.017749459
131	0x3e0c012c	0.13672322
132	0x3cf4012e	0.029785719
133	0xbdd2ca79	-0.10292525
134	0x3dbaeca8	0.0912717
135	0x3c7ab527	0.015301979
136	0x3ddf78f9	0.109117456
137	0xbe06fac6	-0.131816
138	0xbca25d5b	-0.019819906
139	0x3dc53a39	0.09630246
140	0x3e5a97a5	0.2134691
141	0xbcb4ea03	-0.022084242
142	0xbd7d0bb9	-0.061778758
143	0xbd94bb52	-0.07262291
144	0xbd125f0a	-0.035735168
145	0xbc4645c6	-0.012101596
146	0xbd5f8dc4	-0.054578558
147	0x3c74a8cb	0.0149328215
148	0x3c791964	0.0152038075
149	0x3d0a7570	0.033803403
150	0xbd743d4c	-0.05962877
151	0x3de8f354	0.11374536
152	0xbdb2a25c	-0.08722374
153	0xbda2ceb9	-0.079495855
154	0xbd1d789f	-0.03844511
155	0x372567d5	9.858942e-06
156	0xbde55e0a	-0.11199577
157	0xbe4a7f8f	-0.19775222
158	0xbb2605c1	-0.002533302
159	0x3de4e198	0.11175841
160	0x3db0c56a	0.08631404
161	0x3d03b5ab	0.032155674
162	0xbcf6f020	-0.030143797
163	0xbde2e230	-0.11078298
164	0x3ddf78af	0.109116904
165	0x3dea976a	0.11454661
166	0xbca0432d	-0.019563282
167	0x3d9f16de	0.077680334
168	0x3d3bd77d	0.045859803
169	0x3d7fa9d6	0.062417828
170	0x3b3315ff	0.0027326343
171	0xbdc134b1	-0.09433878
172	0x3dadabae	0.08480011
173	0xbe44b365	-0.19209059
174	0xbd8667ac	-0.065627426
175	0x3dc04676	0.09388439
176	0xbd356f2b	-0.04429547
177	0xbd8e2005	-0.06939701
178	0xbd67379f	-0.05644953
179	0xbddf5375	-0.1090459
180	0xbc421dba	-0.011847908
181	0x3e59e58d	0.21278973
182	0xbe07bca0	-0.13255548
183	0x3e641878	0.22274959
184	0xbe2cc59e	-0.1687226
185	0x3d234d8a	0.03986887
186	0x3cbd50d4	0.02310983
187	0xbd88c433	-0.06678047
188	0x3e123e55	0.1428159
189	0xbdf8c4f8	-0.12146944
190	0x3df8f58d	0.1215621
191	0x3d8f37c8	0.06993061
192	0x3de7fead	0.113278724
193	0xbc46cac1	-0.012133301
194	0xbd8d245c	-0.068917006
195	0xbe67d365	-0.22639234
196	0x3c083c39	0.008315139
197	0xbdc87957	-0.09788769
198	0xbe0b4b96	-0.13603052
199	0x3cb2f715	0.021846334
200	0x3d15bbfb	0.036556225
201	0xbd68a47e	-0.056797497
202	0x3e06cdd2	0.13164452
203	0xbd1ca7d8	-0.038246006
204	0x3d79697a	0.060891606
205	0x3bfcd66b	0.0077159903
206	0xbd801d79	-0.062556215
207	0x3c71eca9	0.014765897
208	0x3d3f5199	0.046708677
209	0x3d0bea28	0.034158856
210	0xbcd90e78	-0.026496157
211	0x3ce7a775	0.028278092
212	0xbd99c125	-0.075075425
213	0xbdd1bb5b	-0.10240813
214	0x3da08fc4	0.07839921
215	0x3e10f018	0.14154088
216	0xbe0cf06f	-0.13763593
217	0xbd3ab9ce	-0.045587353
218	0x3d635978	0.055505246
219	0xbdfc7500	-0.123270035
220	0xbc0e50bb	-0.00868624
221	0xbd570aa4	-0.052500382
222	0xbd961710	-0.073286176
223	0xbd91baaa	-0.071156815
224	0x3de34ee1	0.11099029
225	0xbdfbe4c2	-0.122994915
226	0x3d6d6a07	0.057962444
227	0x3d85e4da	0.065377906
228	0xbde79b53	-0.113089226
229	0xbde8cad1	-0.11366809
230	0xbe38ded4	-0.18053752
231	0xbc82cf43	-0.01596797
232	0xbdcffabb	-0.10155245
233	0xbe038870	-0.12845016
234	0x3d04de0b	0.03243832
235	0x3e0ec61a	0.13942757
236	0xbe2c4773	-0.1682413
237	0xbea6fe00	-0.32615662
238	0x3d11040f	0.03540426
239	0x3d1620f5	0.036652524
240	0xbd971b96	-0.073783085
241	0x3d57eb1e	0.05271446
242	0x3dff8055	0.12475649
243	0xbdacd1ae	-0.08438431
244	0x3d83200a	0.06402595
245	0x3e213a33	0.15744857
246	0xbca48415	-0.020082513
247	0xbd2b5ff5	-0.04183956
248	0x3d672f6f	0.05644172
249	0xbcef8aae	-0.029240932
250	0xbd22a981	-0.039712433
251	0x3d0b2656	0.033972107
252	0xbb0d06c0	-0.0021518916
253	0xbb3b42ba	-0.0028573708
254	0x3d9038b3	0.070420645
255	0x3e2f34b1	0.17109944

StatefulPartitionedCall/sequential/dense_1/BiasAdd/ReadVariableOp:0 f4 [256]
0	0x3c8b959d	0.017039115
1	0xbbd4d618	-0.0064952485
2	0x3c2750c3	0.010212126
3	0x3b138373	0.002250877
4	0x3c812f8c	0.015769742
5	0x3c005a8e	0.00783409
6	0xbb8546f8	-0.004067298
7	0x3c034e46	0.008014267
8	0x3c5cd82d	0.013479275
9	0x3bed80c8	0.007248018
10	0x3beb6d45	0.007184657
11	0x3cb4a981	0.022053482
12	0x3cba79bf	0.022763131
13	0x3cfef291	0.031121524
14	0x3c6c4b9e	0.014422325
15	0x3d06cf50	0.032912552
16	0x3ca62a66	0.020283889
17	0x3cd92c2c	0.02651032
18	0x3c57c440	0.013169348
19	0x3caab249	0.020836966
20	0x3c7c23a1	0.015389354
21	0x3c91f0df	0.017815052
22	0x3cbb19fa	0.022839535
23	0x3c5900ff	0.013244866
24	0x3cb97d51	0.022642763
25	0x3c8b87fc	0.017032616
26	0xbc552530	-0.0130093545
27	0x3ccd5d5e	0.025068935
28	0xbbd3d5f4	-0.006464714
29	0x3c26f15e	0.010189382
30	0xbc9485be	-0.01813018
31	0x3c064360	0.008194774
32	0x3c402683	0.011727932
33	0x3c3bd89a	0.011465216
34	0x3c95c218	0.018281028
35	0x3c78e1b3	0.01519053
36	0xbbe1fde4	-0.006896721
37	0x3c85c38f	0.016328601
38	0x39878452	0.00025847793
39	0x3c6a8a53	0.014315206
40	0x3bfa1bd8	0.0076327138
41	0x3c5060e9	0.012718418
42	0x3bcdcc9d	0.0062804953
43	0x3c5a4e97	0.013324401
44	0x3cf79821	0.030223908
45	0x3c8cc316	0.017182868
46	0x3c26f3cd	0.010189963
47	0x3b27c842	0.002560154
48	0x3c769bcf	0.015051796
49	0x3ccf4925	0.025303433
50	0x3c81a7d3	0.015827095
51	0xbc800bb9	-0.01563059
52	0xbbe8a26c	-0.0070994403
53	0x3c806e9b	0.01567774
54	0x3d06d71a	0.03291998
55	0xbb9b2b8c	-0.004735416
56	0x3c6f8bfc	0.014620777
57	0xbc1a0c52	-0.009402351
58	0xbc27f29f	-0.0102507165
59	0x3c82b282	0.01595426
60	0x3b4ea129	0.0031529164
61	0xbb18ed89	-0.0023334941
62	0xbc3c4296	-0.011490485
63	0xbaa0a66c	-0.0012256629
64	0x3c58b71b	0.0132272495
65	0xbc593ef5	-0.013259639
66	0x3ab37d58	0.0013693972
67	0x3c10a923	0.008829388
68	0x3c817dda	0.015807081
69	0x3c497805	0.012296681
70	0xbca8fe30	-0.020629019
71	0x3c939de2	0.01801962
72	0x3bd90f5e	0.0066241464
73	0xb8213e7e	-3.844359e-05
74	0xbb4ca5ab	-0.0031226675
75	0x3c97f0dd	0.01854747
76	0x3c09776d	0.00839029
77	0x3cab1b10	0.020886928
78	0x3c495449	0.012288162
79	0xbc428877	-0.011873356
80	0xbcf10ee9	-0.029426055
81	0xbb42aa85	-0.0029703688
82	0x3b1d8cd0	0.002404023
83	0x3c9fdfad	0.019515837
84	0x3cb954b0	0.02262339
85	0x3d1cc506	0.038273834
86	0x3d07c8d8	0.033150524
87	0xbc3cc49d	-0.011521486
88	0x3b8012bb	0.003908483
89	0x3c454618	0.012040637
90	0x3c3dcd6a	0.011584619
91	0xbc073b7c	-0.008253928
92	0xbb5b1803	-0.003343106
93	0x3cbdc617	0.023165746
94	0x3bef56b4	0.007304037
95	0x3b8e4cf2	0.0043426687
96	0x3a28692d	0.0006424364
97	0xbb8db336	-0.004324342
98	0x3b3084b4	0.0026934566
99	0x3c9c0880	0.019047022
100	0x3c721dca	0.01477761
101	0x3c8d7a4b	0.017270228
102	0x3c2204d5	0.009888847
103	0x3cc7701a	0.024345446
104	0xbc494f9c	-0.012287047
105	0x3caa2e2c	0.02077397
106	0xbce67767	-0.028133107
107	0xbcca3749	-0.024684565
108	0x3d0296b4	0.031882003
109	0x3cae16d3	0.021251118
110	0x3ca38731	0.019961925
111	0x3c468bfc	0.012118336
112	0x3c2a733a	0.010403449
113	0x3b8208ca	0.003968333
114	0x3c74af11	0.014934317
115	0x3b8eab24	0.0043538976
116	0x3c6cd7af	0.01445572
117	0x3d04abb6	0.03239032
118	0x3bf60765	0.0075082057
119	0x39f255a3	0.0004622164
120	0x3c94a130	0.018143266
121	0x3c58abcc	0.013224553
122	0x3d410a34	0.04712887
123	0x3ca67264	0.020318218
124	0x3c0d9003	0.008640292
125	0x3bddbc66	0.0067668436
126	0xbcc11436	-0.023569208
127	0xbbe03952	-0.0068427706
128	0x3b2f6eec	0.0026768995
129	0xbc7ac215	-0.015305062
130	0x3c302524	0.0107510425
131	0x3b8ffc5f	0.0043940987
132	0x3c0f9933	0.008764553
133	0x3c369c6d	0.011145693
134	0x3c85b4ee	0.016321626
135	0x3b92034e	0.0044559604
136	0x3bec94b1	0.007219874
137	0x3c1865f7	0.009301654
138	0x3c22be1b	0.00993302
139	0x3c13b4a8	0.00901524
140	0x3c1f7fbb	0.009735043
141	0x3c67ff6a	0.014160017
142	0x3c995296	0.018716138
143	0xbc66e79d	-0.014093307
144	0x3d1b2e1e	0.037885778
145	0x3b4cacec	0.0031231
146	0x3c97a993	0.018513476
147	0xbbe23992	-0.0069038356
148	0xbb622fa5	-0.0034513262
149	0x3bf5f902	0.0075064907
150	0x3c0a34b0	0.008435413
151	0xbb90b161	-0.0044156765
152	0xbbd12487	-0.006382528
153	0xb9eff9d1	-0.0004577176
154	0xbc38c999	-0.011278533
155	0xbc455d96	-0.012046238
156	0x3c926c4c	0.017873906
157	0x3c496e9c	0.012294438
158	0x3ca08f85	0.019599685
159	0x3c5132f2	0.012768494
160	0xbb5b07fa	-0.0033421502
161	0x3cc23082	0.023704771
162	0xbbe439f0	-0.0069649145
163	0x3bd78613	0.006577262
164	0x3bb3f371	0.005491667
165	0xbc5f5732	-0.013631629
166	0x3cb72157	0.022354765
167	0xbc9b99d4	-0.01899425
168	0x3c5c92ed	0.013462764
169	0xbbf98c5a	-0.007615608
170	0x3c314513	0.010819691
171	0x3b7867eb	0.0037903737
172	0x3ac19534	0.0014769197
173	0xbba10ef5	-0.004915113
174	0x3cb089c9	0.021550076
175	0x3c425c77	0.011862866
176	0x3c670133	0.014099407
177	0x3cdabfbd	0.026702756
178	0x3a93e771	0.0011284185
179	0xbbbe250b	-0.0058027557
180	0x3ba0805f	0.0048981155
181	0xbc350a2d	-0.011049789
182	0x3abaac8a	0.0014242094
183	0x3c83c322	0.016084258
184	0x3c90ebbb	0.01769053
185	0x3c0d6ae0	0.008631438
186	0x3ba80475	0.0051274844
187	0x3c8dc03b	0.017303577
188	0xbc2479bc	-0.010038789
189	0xbb37eb3c	-0.0028063795
190	0x3b0feb2a	0.0021960237
191	0xbb526f6a	-0.0032109865
192	0x3af500b6	0.0018692228
193	0x3c61d9c7	0.013784832
194	0x3aaeb842	0.001333006
195	0x3cf827ff	0.03029251
196	0x3bfd46fb	0.007729409
197	0x3c514fac	0.012775343
198	0x3cd45871	0.025921078
199	0x3c2a7eb2	0.010406183
200	0x3ce5498b	0.02798917
201	0x3cdb6e73	0.026786065
202	0x3b24dae5	0.0025154885
203	0x3c755342	0.0149734635
204	0x3ca92a38	0.020650014
205	0x3cf0a7db	0.029376915
206	0x3cafdc35	0.021467308
207	0x3ca0a535	0.019610027
208	0x3c7bbd47	0.015364951
209	0x3c57f71d	0.013181475
210	0x3c855f51	0.016280802
211	0x3c868e03	0.016425138
212	0xbcbe269d	-0.023211772
213	0x3cf27fb0	0.029601902
214	0xbd365c9d	-0.044521917
215	0xbaf6e533	-0.0018836617
216	0x3c489c4d	0.012244296
217	0x3baa7594	0.0052020047
218	0xbbb73bc8	-0.0055918433
219	0x3c85f75d	0.016353304
220	0xbbf0a7e4	-0.007344233
221	0x3a48f1b9	0.0007665414
222	0x3cd1bf86	0.02560402
223	0x3b747e20	0.0037306622
224	0x3c2a09c1	0.010378302
225	0x3cc1b31b	0.023644974
226	0x3c6af207	0.01433993
227	0xbae6e4ab	-0.0017615756
228	0x3c94c0d8	0.018158361
229	0x3ca90e44	0.020636685
230	0x3c416d96	0.0118059125
231	0xbaaeec9a	-0.0013345659
232	0x3d051d2d	0.032498527
233	0x3c95a3db	0.018266609
234	0x3c910533	0.017702674
235	0xba7c4e7d	-0.0009624733
236	0x3cbfaf31	0.023398967
237	0x3c4f6d16	0.012660285
238	0xbc94f27f	-0.018182037
239	0xbc3b4d97	-0.011432073
240	0xbb8059d0	-0.0039169565
241	0x3c1d014b	0.009582828
242	0x3c7f40a2	0.0155793745
243	0x3bdb336d	0.00668948
244	0x3c9c18b7	0.019054754
245	0xbca2ec45	-0.019888053
246	0x3c82d900	0.015972614
247	0x3cb8dde4	0.022566743
248	0x3c77b252	0.0151181985
249	0x39550885	0.00020316437
250	0x3bd1b8b8	0.006400194
251	0xbc3fddc3	-0.011710587
252	0xbc72207e	-0.014778255
253	0xbc0bd76d	-0.008535248
254	0x3c7166b2	0.014733957
255	0xbc2f4dc6	-0.010699695

StatefulPartitionedCall/sequential/dense/MatMul/ReadVariableOp:0 f4 [54, 128]
0	0xbdbb410b	-0.09143265
1	0x3d9b720b	0.07590111
2	0xbce7d425	-0.0282994
3	0x3c24e0b8	0.010063343
4	0xbb89eb0b	-0.0042089275
5	0xbddb1576	-0.10697453
6	0xbd925770	-0.07145584
7	0x3e10eee7	0.14153634
8	0x3e5c1c24	0.2149511
9	0xbbc6c1b3	-0.006065571
10	0xbe1cb7a5	-0.1530443
11	0xbc48ec4d	-0.01226337
12	0xbc91439e	-0.017732438
13	0xbd0d7bfc	-0.03454207
14	0x3d3c4f4e	0.04597407
15	0x3da49bd5	0.08037535
16	0x3dd9f600	0.10642624
17	0x3c7a5df5	0.01528119
18	0x3e26af22	0.16277745
19	0xbb6c2ce1	-0.0036037492
20	0xbd83390c	-0.06407365
21	0xbe1fb943	-0.15598015
22	0xbd9f9b07	-0.07793241
23	0x38a1505d	7.692047e-05
24	0xbd9681ac	-0.07348952
25	0x3d904de9	0.0704611
26	0xbd493e9f	-0.049131986
27	0xbd339c7e	-0.043850414
28	0x3d84f3d6	0.064918205
29	0xbdcd007f	-0.1000986
30	0x3d08cf33	0.033400726
31	0xbe097dc0	-0.13426876
32	0x3dd2204e	0.10260068
33	0xbdf7b955	-0.12095896
34	0x3dda7f98	0.10668868
35	0x3d867f8b	0.06567296
36	0x3d07ab8e	0.03312259
37	0xbd207c17	-0.03918084
38	0x3c2c8eba	0.010532076
39	0x3e29189f	0.16513298
40	0xbc290bea	-0.010317782
41	0x3cfb9163	0.030708974
42	0x3c03673d	0.008020219
43	0x3e33756f	0.17525266
44	0x3d09cc3f	0.03364205
45	0xbe80c5fe	-0.25151056
46	0x3d65490c	0.055977866
47	0x3d3139f8	0.043268174
48	0xbd0426a0	-0.0322634
49	0x3ca34ffd	0.019935602
50	0x3da67d21	0.08129335
51	0x3e73171c	0.23739284
52	0x3cfbfe2c	0.030760847
53	0xbd18235d	-0.0371431
54	0xbd3620a3	-0.04446472
55	0x3dbb8614	0.09156433
56	0xbc744a88	-0.014910348
57	0x3e0ce6fa	0.13759986
58	0x3e82e1fa	0.2556303
59	0x3db62b10	0.08894932
60	0x3cd50804	0.026004799
61	0x3dc69d40	0.09697962
62	0xbcdbd0f8	-0.026833043
63	0xbd0210ee	-0.031754427
64	0x3d2bef55	0.04197629
65	0xbd8a7844	-0.0676122
66	0xbdc2162e	-0.09476887
67	0x3d1bb236	0.038011752
68	0xbce6a0bc	-0.028152816
69	0xbd86006f	-0.065430515
70	0x3ca9dc59	0.020734953
71	0x3d0a46c3	0.03375889
72	0xbdb9ca70	-0.09071815
73	0xbdde4aff	-0.10854148
74	0x3e48dbb6	0.19615063
75	0xbd33cdeb	-0.04389755
76	0x3df824d7	0.12116402
77	0x3d1b7f6a	0.03796331
78	0xbd4f2371	-0.05057091
79	0xbd6eb1e3	-0.058275115
80	0x3d9ef973	0.077624224
81	0xbcdac478	-0.026705012
82	0x3cfac06a	0.030609328
83	0x3d610fd0	0.05494672
84	0x3dddf231	0.1083721
85	0x3cd53376	0.026025515
86	0x3e0ba081	0.13635446
87	0xbd32198e	-0.043481402
88	0x3ae87ab7	0.0017736767
89	0x3de9852c	0.11402354
90	0xbd987b73	-0.07445421
91	0xbd2bc68c	-0.041937396
92	0xbd9e96fa	-0.0774364
93	0x3afc4890	0.00192477
94	0xbd174720	-0.036933064
95	0x3bf7430d	0.007545835
96	0x3e2f5745	0.17123134
97	0xbdc657b3	-0.09684696
98	0xbc588ac8	-0.013216682
99	0xbd14e70f	-0.036353167
100	0x3dcf09d1	0.10109294
101	0xbdbf93ac	-0.09354338
102	0x3bbd35de	0.0057742437
103	0xbc658075	-0.014007677
104	0xbb4f2ece	-0.003161359
105	0x3db11710	0.08646977
106	0xbdfb40fa	-0.12268253
107	0x3ce1a877	0.02754615
108	0xbd55d1f2	-0.052202173
109	0xbccffbe2	-0.025388662
110	0x3c9d985a	0.019237686
111	0xbdca2c07	-0.09871679
112	0xbdc4f667	-0.0961731
113	0x3d2ecd1e	0.042676084
114	0xbd4203b8	-0.047366828
115	0x3bd5c4f5	0.0065237232
116	0xbdfc2ba6	-0.12313013
117	0x3dbb076d	0.09132276
118	0xbe1d6fb1	-0.15374638
119	0x3dc8a9eb	0.09798034
120	0xbcb52b2d	-0.022115314
121	0xbd9c8b6c	-0.0764378
122	0x3cbe670a	0.023242492
123	0xbc5c5146	-0.0134471115
124	0x3d28d830	0.041221797
125	0x3b8186d9	0.0039528427
126	0x3d7bb5d6	0.06145271
127	0x3da116d1	0.0786568
128	0x3c89404c	0.016754292
129	0x3bf44257	0.0074541974
130	0xbdfd56a3	-0.1237004
131	0x3d6f0b9f	0.058360692
132	0x3dc8efd9	0.09811372
133	0x3dbea368	0.09308511
134	0x3d8a5549	0.06754548
135	0xbdd18723	-0.102308534
136	0xbe28d5da	-0.16487828
137	0x3d84da58	0.06486958
138	0xbd668ca4	-0.05628647
139	0xbde2ddfb	-0.11077496
140	0x3e1b88de	0.1518893
141	0xbcbc05ee	-0.022952046
142	0x3d682202	0.056673057
143	0xbc323534	-0.010876942
144	0xbdcc4a23	-0.09975078
145	0x3e640e2e	0.22271034
146	0x3e236060	0.15954733
147	0xbe436c75	-0.19084342
148	0xbc5f6eaa	-0.013637224
149	0xbd0d163f	-0.034445044
150	0x3d64b036	0.05583211
151	0xbca529cd	-0.020161534
152	0xbc247637	-0.01003795
153	0xbcfb3740	-0.030665994
154	0x3ddbde7e	0.107357964
155	0x3ce422d8	0.027848646
156	0xbc2258ac	-0.009908836
157	0xbdab51a4	-0.08365181
158	0xbcbb46a7	-0.022860838
159	0xbe42e14b	-0.19031255
160	0x3bbb1cf0	0.0057102367
161	0xbdd4ba9f	-0.10387158
162	0x3ca617de	0.020275053
163	0x3c355cad	0.011069459
164	0xbd86d66c	-0.065838665
165	0x3bebe037	0.0071983594
166	0x3d8efa1a	0.06981297
167	0xbe16a021	-0.14709522
168	0x3c7d4f59	0.0154608125
169	0xbb2d3da6	-0.002643445
170	0x3d51cca7	0.051220562
171	0x3d16b71d	0.036795724
172	0x3e09d976	0.13461861
173	0x3d894034	0.06701699
174	0x3dcf36b1	0.101178534
175	0xbdd29386	-0.10282044
176	0xbda0b89a	-0.0784771
177	0xbcf4e20c	-0.029892944
178	0x3d9f0382	0.07764341
179	0x3dbd5830	0.09245336
180	0x3ca8591f	0.020550309
181	0xbd0b3e4a	-0.03399495
182	0x3d2b98ec	0.041893885
183	0xbd0a5aae	-0.033777885
184	0x3c0941da	0.008377517
185	0xbdd1c460	-0.10242534
186	0x3e36fbd4	0.17869502
187	0xbcb296ee	-0.021800485
188	0xbbe006ec	-0.0068367627
189	0x3d99bd36	0.07506792
190	0x3d774311	0.060366694
191	0xbcbef8c1	-0.023311974
192	0xbcbefc1c	-0.023313574
193	0x3d22b630	0.03972453
194	0x3dcbbcfa	0.09948154
195	0x3d7212da	0.05910001
196	0x3d1ea83c	0.03873466
197	0x3e78232d	0.24232168
198	0xbd86c3e3	-0.06580331
199	0x3cf74c12	0.03018764
200	0xbdcb8c61	-0.099388845
201	0x3cf8dec1	0.030379655
202	0xbc962377	-0.018327458
203	0xbd042c61	-0.032268886
204	0xbbae17c1	-0.0053128903
205	0x3e0acd62	0.1355491
206	0x3e13f752	0.14449814
207	0xbdc5fafa	-0.096670106
208	0x3e1dd688	0.15413868
209	0xbc4b3761	-0.01240334
210	0x3bd1e3ee	0.006405345
211	0xbd528658	-0.05139765
212	0x3df27d03	0.1184025
213	0x3ba0c700	0.004906535
214	0xbd85aeeb	-0.065275036
215	0x3d3d8bc6	0.046275876
216	0xbb86ef86	-0.004117909
217	0xbcc969fb	-0.024586668
218	0x3e48d711	0.19613291
219	0xbd3914b5	-0.045185763
220	0xbd54965c	-0.051901206
221	0x3dbc81be	0.09204434
222	0x3e29626c	0.16541451
223	0x3d5670fb	0.05235384
224	0xbd107e2d	-0.03527658
225	0x3e0189ea	0.12650266
226	0xbdadc500	-0.084848404
227	0x3da8dc6d	0.08245168
228	0x3d8d5210	0.06900418
229	0x3e03e1c0	0.12879086
230	0x3c1d5326	0.009602344
231	0xbd5ce5c9	-0.053930078
232	0x3dee4fd6	0.11636321
233	0x3d8a9387	0.0676642
234	0x3e32226c	0.17395943
235	0x3dd1edf6	0.102504656
236	0x3b81183a	0.0039396556
237	0x3a277bf7	0.00063890166
238	0xbb837fae	-0.0040130233
239	0x3cc0f37c	0.023553602
240	0xbd3724db	-0.044712882
241	0x3d240078	0.04003951
242	0x3c425d50	0.011863068
243	0xbdba4666	-0.09095459
244	0x3db5fe7e	0.08886431
245	0xbcf86c42	-0.030325059
246	0x3bcdcc17	0.006280433
247	0xbcae00ec	-0.021240674
248	0x3d8e3348	0.06943375
249	0x3daa9395	0.0832893
250	0xbe096113	-0.13415937
251	0x3cf93f95	0.030425826
252	0xbd966af2	-0.07344617
253	0x3d216e49	0.039411817
254	0x3cf49af9	0.029859053
255	0x3b0df4c4	0.0021660784

StatefulPartitionedCall/sequential/dense/BiasAdd/ReadVariableOp:0 f4 [128]
0	0x3c12bbbd	0.008955893
1	0x3cdae645	0.02672113
2	0x3d1a520a	0.037675895
3	0x3c9729c6	0.018452536
4	0x3cf463e1	0.029832782
5	0x3c9697e2	0.01838297
6	0xbb30b10e	-0.0026961002
7	0x3cf2d787	0.029643787
8	0x3cc193f4	0.02363012
9	0x3bb56a35	0.0055363425
10	0x39d41229	0.0004044932
11	0xbc8fdc72	-0.017561171
12	0x3c40afdc	0.011760678
13	0x3d299e08	0.041410476
14	0x3c664733	0.014055061
15	0xbc92457a	-0.017855395
16	0x3a726cec	0.0009247798
17	0xbc302a75	-0.01075231
18	0x3c8a49f9	0.016880976
19	0x3c90b255	0.01766316
20	0x3c85d24a	0.016335625
21	0x3cd04eae	0.025428142
22	0x3c22eb0e	0.009943737
23	0x3bb8ca0a	0.0056393193
24	0x3cc420bd	0.023941392
25	0xbb000090	-0.0019531585
26	0x3cf18ada	0.029485155
27	0x3c34f0ea	0.0110437665
28	0x3ca367b7	0.019946916
29	0xbb56d4aa	-0.0032780566
30	0x3cf63fb2	0.03005967
31	0x3af43dec	0.0018634177
32	0x3c9172ae	0.017754879
33	0x3c4b6802	0.012414934
34	0x3c404db2	0.011737274
35	0x3d2cd89e	0.04219877
36	0x3caab9fe	0.020840641
37	0x3ca6bcb3	0.02035365
38	0x3d54aab3	0.051920604
39	0x3cb4aad4	0.022054113
40	0x3bf6e66e	0.0075347936
41	0x3cb58f33	0.02216301
42	0x3c4d35ed	0.012525064
43	0x3c569baf	0.013098641
44	0x3d1452aa	0.036211647
45	0xbb54f68d	-0.0032495589
46	0xbaeba675	-0.0017978685
47	0x3af600b8	0.0018768525
48	0x3ca03ea1	0.019561114
49	0x3c5c3d79	0.013442391
50	0x3cd73992	0.026272569
51	0x3a9ee8fc	0.0012123878
52	0x3c843c66	0.016142081
53	0x3c904601	0.017611505
54	0x3cbad76e	0.022807803
55	0x3ce55943	0.027996665
56	0x3cbe87b3	0.023258066
57	0xb9963a41	-0.00028653632
58	0x3d2677dc	0.04064165
59	0x3c425cc8	0.011862941
60	0xbb63307f	-0.0034666357
61	0x3be098ef	0.0068541686
62	0x3d13c101	0.036072735
63	0xbc5aa2b0	-0.013344452
64	0x3914dddd	0.0001419703
65	0x3bc48599	0.0059973714
66	0x3ca877ee	0.020565
67	0x3c6c8386	0.0144356545
68	0x3b798268	0.0038072113
69	0x3c9fa686	0.019488584
70	0x3c1cde89	0.009574541
71	0x3c33f5ac	0.010983866
72	0xbc0a613a	-0.008446032
73	0x3c8f43d7	0.017488403
74	0x3baff117	0.0053693163
75	0x3baa381c	0.005194677
76	0x3c1b7b1e	0.009489803
77	0x3c9dfe5a	0.019286323
78	0x3c08e5d0	0.008355573
79	0xbb5173f7	-0.003195999
80	0xbbed0d64	-0.0072342623
81	0x3bee91e7	0.0072805765
82	0x3c38cdd2	0.01127954
83	0x3cff9901	0.031200888
84	0x3c203e8a	0.0097805355
85	0xba722602	-0.0009237231
86	0xba0bf207	-0.0005338494
87	0x3cb8638b	0.022508403
88	0x3c777136	0.015102675
89	0x3c07f81b	0.008298899
90	0x3be8e772	0.0071076686
91	0x3c5f03e9	0.013611772
92	0x3c617fe7	0.013763404
93	0x3cb95b19	0.022626447
94	0x3ba4dd12	0.0050312364
95	0x3cadf6d1	0.021235855
96	0x3c033d47	0.008010215
97	0x3ca0447c	0.019563906
98	0xbc045f9c	-0.008079436
99	0x3c2251c1	0.009907187
100	0x3cc334ab	0.023828825
101	0x3d30a69b	0.043127637
102	0xbbb8bf3a	-0.0056380304
103	0x39f4777b	0.00046628327
104	0x3b461162	0.0030222763
105	0x3c787ac2	0.0151659865
106	0x3bdf3322	0.0068115154
107	0x3cbe5159	0.023232149
108	0x3cdd98ea	0.027050454
109	0x3bc24ecb	0.005929803
110	0x3cbce710	0.023059398
111	0x3bc29e23	0.0059392615
112	0x3c18b50e	0.009320511
113	0x3d204c2a	0.039135136
114	0x3a390456	0.0007057836
115	0x3cccb2f6	0.024987679
116	0x3c5c63a6	0.013451492
117	0xbb2ed3e7	-0.0026676597
118	0x3b5fac85	0.003412993
119	0x3c628e6e	0.013827903
120	0x3cf5adbd	0.029990071
121	0xbaf7c8bd	-0.0018904429
122	0x3c9db2d6	0.019250315
123	0xba56cd1c	-0.0008194016
124	0x3d250cf0	0.04029554
125	0x3cadee3f	0.021231769
126	0x3c4e137f	0.01257789
127	0x3cc0c876	0.023533087
